PSI-Intent-Prediction/ckpts/ped_intent/PSI2.0/lstm_int_bbox/20241128171350/latest.pth (torch, 73997 bytes, 5 tensors)

module.lstm.weight_ih_l0 f4 [256, 4]
-0.05649949 -0.14786655 0.015262547 0.14634018 -0.118117094 0.036143653 -0.038768925 0.112604305
0.0064178575 0.031194957 0.019203318 0.038841262 0.007206609 -0.022938265 -0.02683136 -0.034307826
-0.013952344 -0.013238076 -0.010798574 -0.017981708 -0.027384996 -0.14023723 0.085738294 -0.02647529
0.015552736 0.011686899 0.015831448 0.016492456 0.0031706668 0.017615244 0.009245973 0.01774448
0.005542865 -0.019200135 0.0067013158 0.029211294 9.4761117e-07 5.135104e-07 9.806935e-07 5.725861e-07
1.6803971e-05 3.860551e-05 3.479977e-05 8.5210435e-05 0.0035516128 -0.024620423 0.0053905826 0.058682024
-0.070581146 -0.08637753 0.0792733 -0.034529805 0.033766136 0.03330746 0.032720752 0.029254587
-0.030233612 -0.026405694 -0.03266127 -0.023363462 0.06658851 0.0062076934 -0.083603494 0.090245
0.0014202319 0.004500572 0.00065970735 0.0050528576 -0.003197338 -0.07053882 -0.028861195 0.0072059534
0.008493476 0.008627926 0.0041362722 0.01585045 0.0076149334 0.010331019 0.021176212 0.009810388
-0.04573221 0.013940352 0.08780305 -0.04018813 -0.01550759 0.123829864 -0.09561093 0.10169786
0.004300444 0.021859603 0.0065322085 0.011459803 -0.00088730775 0.07174261 -0.041937504 0.120831646
0.108154655 -0.0035004849 0.026500959 -0.047848154 0.06991548 -0.034316782 -0.032978453 -0.06987842
0.063349076 0.039886065 0.0099895885 -0.0059096375 -0.014431099 -0.015590598 -0.017627535 -0.021573842
0.10932359 0.11359463 0.12236717 -0.09079451 -0.09018059 0.050163243 0.09600124 0.13846512
0.11191719 -0.09215265 0.08883165 -0.051167484 -0.08781587 0.030519959 0.06501226 -0.09688118
0.010043522 -0.00075572816 0.030756144 0.09958857 -0.004125232 -0.0029460562 -0.004005872 -0.00501765
-0.13265663 -0.027451377 -0.12021376 0.060836468 -0.026596008 -0.021560486 -0.025676744 -0.018443255
0.12269981 0.081689864 -0.17730735 -0.023256807 -0.12313838 0.09537828 -0.072177894 0.044053737
0.0042399624 0.11761796 -0.060180403 0.078161046 -0.018370062 -0.03489744 -0.025040517 -0.008235707
5.4073652e-09 2.1310179e-07 3.71965e-08 4.3662916e-07 -0.17628255 0.07090789 -0.06823198 0.049837388
0.0015420599 -0.018439487 0.0064235437 -0.010836028 -0.062040355 -0.08711907 0.10272994 -0.013392733
0.03557973 0.008795814 0.041125603 0.020748746 0.0053640585 0.0032979306 0.004910055 0.003532273
0.037975788 -0.01108513 0.023894709 0.059228823 0.05165347 0.042776518 0.043239146 0.0041437703
-0.0018293579 0.014268976 0.008033998 0.0066494234 0.015824832 -0.01991142 0.00068509544 0.015725302
0.0065327743 0.017413555 0.015691694 -0.009669826 -0.005774561 -0.026943134 -0.023366865 -0.011579749
-0.00026327415 0.0038313386 -0.00036273006 0.0040463367 0.010096892 0.011418483 0.043538988 0.014691242
0.030200416 -0.06175918 -0.016670905 -0.0408011 -0.012059879 -0.011274934 -0.01306776 -0.017732525
0.018760806 -0.07654914 0.03327959 -0.1175371 0.020524466 0.017265558 0.026130738 0.013830155
-0.17053305 0.012914929 -0.14943269 -0.008330737 7.965842e-10 1.1892655e-10 3.5877536e-09 2.700539e-10
-0.1276253 0.07792855 0.1314987 -0.07704507 0.0036329634 -0.040359486 -0.0033162213 -0.07255506
0.00018398657 -0.0045448863 -0.0010121296 -0.007531917 -0.018635316 -0.1173205 0.11696019 0.020701518
00000000: 026c 67bd 546a 17be c30f 7a3c 33da 153e
00000010: 60e7 f1bd 5e0b 143d 2acc 1ebd 169d e63d
00000020: e44c d23b 918c ff3c 4750 9d3c 0418 1f3d
00000030: 6b25 ec3b 07e9 bbbc 71cd dbbc 5d86 0cbd
00000040: 5f98 64bc 84e4 58bc 81ec 30bc 604e 93bc
00000050: 8056 e0bc 599a 0fbe 8f97 af3d b5e2 d8bc
00000060: e7d0 7e3c 687a 3f3c f4b0 813c 301b 873c
00000070: f6ca 4f3b d84d 903c 6c7c 173c df5c 913c
00000080: eca0 b53b 9a49 9dbc b696 db3b 864c ef3c
00000090: 585f 7e35 2ad8 0935 5fa0 8335 d1b3 1935
000000a0: 41f6 8c37 5aec 2138 f8f5 1138 01b3 b238
000000b0: 2dc2 683b c5b0 c9bc 7ca3 b03b 905c 703d
000000c0: d98c 90bd b4e6 b0bd 0a5a a23d 206f 0dbd
000000d0: 5c4e 0a3d 676d 083d 3206 063d 51a7 ef3c
000000e0: 7bac f7bc c150 d8bc d3c7 05bd bb64 bfbc
000000f0: 8f5f 883d e869 cb3b 4f38 abbd 5fd2 b83d
00000100: 1327 ba3a 8979 933b 36f0 2c3a 7192 a53b
00000110: 6e8a 51bb a876 90bd 506e ecbc eb1f ec3b
00000120: 3828 0b3c 255c 0d3c 9189 873b ced8 813c
00000130: b186 f93b 6f43 293c bc79 ad3c c0bb 203c
00000140: b351 3bbd 1366 643c 16d2 b33d 4f9c 24bd
00000150: 8c13 7ebc 839a fd3d aacf c3bd f846 d03d
00000160: bdea 8c3b e912 b33c 230c d63b e6c1 3b3c
00000170: 379a 68ba caed 923d a9c6 2bbd 9576 f73d
00000180: 3080 dd3d 6468 65bb 8a18 d93c 6dfc 43bd
00000190: d92f 8f3d c18f 0cbd 6a14 07bd 6b1c 8fbd
000001a0: 29bd 813d 925f 233d 5fab 233c a2a5 c1bb
000001b0: 6b70 6cbc b56f 7fbc 9f67 90bc a0bb b0bc
000001c0: 0ce5 df3d 4da4 e83d a49b fa3d 79f2 b9bd
000001d0: 9ab0 b8bd f977 4d3d 4c9c c43d cdc9 0d3e
000001e0: d734 e53d 87ba bcbd 5eed b53d ff94 51bd
000001f0: cfd8 b3bd fe04 fa3c 2625 853d a469 c6bd
00000200: 968d 243c 0f1c 46ba 4ff4 fb3c 18f5 cb3d
00000210: f42c 87bb 9f12 41bb b143 83bb 196b a4bb
00000220: 24d7 07be b6e1 e0bc a232 f6bd a92f 793d
00000230: dfdf d9bc 9e9f b0bc 0958 d2bc 4f16 97bc
00000240: 0a4a fb3d 044d a73d 0f90 35be 0f85 bebc
00000250: fa2f fcbd b055 c33d 01d2 93bd b171 343d
00000260: 62ef 8a3b afe1 f03d ba7f 76bd e612 a03d
00000270: d07c 96bc 9ef0 0ebd c521 cdbc 0fef 06bc
00000280: b0cb b931 f9d0 6434 fcc1 1f33 db69 ea34
00000290: 6a83 34be 2838 913d 35bd 8bbd 4a22 4c3d
000002a0: f21e ca3a 680e 97bc 977c d23b 9889 31bc
000002b0: 071e 7ebd 7c6b b2bd 1364 d23d 326d 5bbc
000002c0: 0dbc 113d 511c 103c 5273 283d 46f9 a93c
000002d0: fcc4 af3b 1822 583b 87e4 a03b b57d 673b
000002e0: 808c 1b3d 689e 35bc d6be c33c ec99 723d
000002f0: 9792 533d 6e36 2f3d 881b 313d 77c8 873b
00000300: 11c7 efba 6cc8 693c 08a1 033c 68e3 d93b
00000310: 14a3 813c 461d a3bc fa97 333a 59d2 803c
00000320: e210 d63b dfa6 8e3c de8b 803c 316e 1ebc
00000330: 8738 bdbb d9b7 dcbc de6b bfbc fdb8 3dbc
00000340: 0f08 8ab9 3217 7b3b ce2c beb9 2297 843b
00000350: 6f6d 253c 9714 3b3c f055 323d 89b3 703c
00000360: dd66 f73c 32f7 7cbd 6c91 88bc 0e1f 27bd
00000370: cc96 45bc 80ba 38bc 281a 56bc cd43 91bc
00000380: 43b0 993c ccc5 9cbd 2e50 083d 4bb7 f0bd
00000390: ed22 a83c 8070 8d3c 2110 d63c e097 623c
000003a0: 37a0 2ebe 2399 533c e204 19be a57d 08bc
000003b0: a1f6 5a30 d9c2 022f 6e8c 7631 b576 942f
000003c0: 35b0 02be 0199 9f3d 98a7 063e cec9 9dbd
000003d0: 0317 6e3b fd4f 25bd f654 59bb bf97 94bd
000003e0: 85ec 4039 45ed 94bb 6fa9 84ba 4dce f6bb
000003f0: 17a9 98bc bb45 f0bd d388 ef3d 3b96 a93c

module.lstm.weight_hh_l0 f4 [256, 64]
-0.035740234 0.14471927 0.049655773 0.0028582455 -6.060248e-18 -8.745587e-06 -0.012393313 -0.0069985166
0.16813196 1.3623772e-11 5.5543314e-08 -0.14634882 3.956108e-11 -0.12139537 0.07748025 0.06844259
-0.00300999 -3.5009543e-05 0.4786302 0.25174168 0.17457722 0.101780966 0.18220653 -0.0700886
-0.001159266 0.0047405898 -0.0041535655 -2.6963703e-10 0.0044620354 -0.001894611 -0.14348872 -0.00782364
0.0041682837 -2.1904587e-09 -0.061351888 0.002821357 -0.37983006 0.13912876 -0.21028364 2.6662436e-10
-3.367389e-10 0.061299168 -0.006489538 4.1845468e-07 -0.034299217 -0.034054797 -0.029303633 -0.050677776
0.009979123 0.22335267 0.05172612 -3.261158e-08 0.026772046 -0.2903275 2.6255314e-11 5.772047e-17
-0.11989434 -0.105557345 -0.1472866 -0.023879692 -0.32430136 0.08255227 0.013966008 0.2972965
0.09796152 -0.022165269 -0.103361376 0.04110839 -1.5638191e-21 -1.6767839e-08 0.13001262 -0.101029046
0.050623477 -4.204455e-12 1.3026006e-13 0.17214628 9.0858115e-13 0.117233105 -0.13630347 -0.17425661
-0.0011897379 -0.005526589 -0.09431164 5.170916e-09 -2.562743e-14 0.10964274 -0.0138156125 -0.05143467
0.19136198 -0.017986402 -0.0030656406 8.607053e-13 -0.054574497 -0.10891699 -0.06800068 -2.0931004e-20
0.00021415613 -2.9041381e-05 -6.9662286e-33 -0.001220371 -0.05541946 -1.9828903e-28 -0.038131353 0.0016636573
1.0671748e-13 -3.5503944e-19 1.3163511e-05 3.778623e-10 0.08668722 -0.15430926 -0.07531989 0.13506196
0.10574109 0.11406083 0.008533515 -1.3100329e-06 4.91231e-40 -0.22950038 -6.154332e-13 1.1788506e-19
0.10720698 -0.08358042 -5.07332e-40 0.0023428372 -0.08313667 -0.07321884 0.0033929 0.20040403
1.5840704e-15 -0.0007675811 -1.5051279e-06 1.0704445e-18 6.0339e-40 5.0188e-40 2.0959963e-25 0.0030916466
-0.00032405468 -4.96999e-40 5.03767e-40 0.0003487934 -5.07539e-40 4.94553e-40 -0.0016489156 -0.00010151874
-5.518e-40 -4.9415e-40 -0.001548345 -5.9378513e-10 -3.857753e-10 -0.00042043746 0.00082704955 -0.0016327688
0.00023664707 -6.9600916e-05 -5.027e-40 5.00656e-40 -0.0001410921 -4.91099e-40 -0.00061103737 5.04074e-40
5.04636e-40 5.00217e-40 1.0254947e-09 5.17114e-40 -4.9938424e-36 1.40711665e-08 0.00031901675 -4.959e-40
5.45713e-40 -5.978546e-05 5.01271e-40 5.08006e-40 0.00074675475 -6.289571e-05 -5.07822e-40 0.0011594971
0.0037746115 6.493417e-05 -0.002047008 5.41148e-40 -3.8195665e-11 -0.000106577194 -5.05014e-40 5.36973e-40
-4.9399e-40 4.98463e-40 3.6013656e-30 -5.00605e-40 0.00017581355 4.90463e-40 -4.94095e-40 0.00015163617
7.928734e-10 1.6217985e-08 -1.7501122e-13 -7.120697e-11 1.3353996e-28 -8.4307635e-16 8.874449e-14 -1.7346832e-13
1.2211153e-09 -6.1474234e-24 5.5120064e-19 -6.149231e-08 2.9169915e-24 -7.88453e-15 7.726622e-08 2.2482457e-13
-7.457505e-15 4.022395e-19 -1.9535285e-09 5.8354717e-09 2.6181104e-07 1.0219203e-08 -9.253428e-06 2.5853133e-08
-1.3498538e-07 4.8373337e-16 1.35718e-23 -1.7453184e-21 -1.8213971e-07 1.927501e-13 4.4823633e-15 -6.8156595e-33
-9.3451384e-26 7.994679e-18 -1.3951553e-13 2.176134e-19 1.2675998e-13 1.5942725e-13 -4.8935958e-09 1.9600133e-20
-1.266836e-20 1.3838191e-13 -1.0570164e-14 1.8116805e-27 1.219805e-09 -2.8361058e-08 -1.3126666e-13 1.3133571e-13
-4.1908747e-06 1.0787088e-10 3.514533e-06 -9.442772e-19 1.664107e-14 1.6564195e-06 -3.2849938e-23 -9.288808e-27
3.94853e-18 -1.3120871e-13 1.456825e-15 1.056975e-27 -1.307895e-06 8.3514165e-26 -8.248565e-18 2.6714044e-09
00000000: 5a64 12bd 4a31 143e da63 4b3d 6751 3b3b
00000010: 6d95 dfa2 03ba 12b7 530d 4bbc d053 e5bb
00000020: c92a 2c3e 04ac 6f2d 858e 6e33 77dc 15be
00000030: d1fd 2d2e 239e f8bd f7ad 9e3d a12b 8c3d
00000040: 4143 45bb 36d7 12b8 040f f53e 49e4 803e
00000050: 5fc4 323e 8a72 d03d 5994 3a3e 9d8a 8fbd
00000060: 83f2 97ba f356 9b3b a21a 88bb 0a3c 94af
00000070: 4436 923b 9954 f8ba b5ee 12be b92e 00bc
00000080: 1996 883b f586 16b1 1e4c 7bbd 84e6 383b
00000090: 1679 c2be c577 0e3e 9854 57be 0b94 922f
000000a0: c91f b9af d614 7b3d 31a6 d4bb f9a7 e034
000000b0: 567d 0cbd 0b7d 0bbd 2c0e f0bc 8093 4fbd
000000c0: 7a7f 233c 90b6 643e c5de 533d d010 0cb3
000000d0: 0d51 db3c cea5 94be b6f1 e62d 2718 8524
000000e0: 2a8b f5bd 732e d8bd 4cd2 16be 589f c3bc
000000f0: d40a a6be 2a11 a93d afd1 643c 3f37 983e
00000100: 0da0 c83d f093 b5bc 21af d3bd 4561 283d
00000110: 5251 ec9c de08 90b2 0722 053e 51e8 cebd
00000120: 905a 4f3d 5dee 93ac e8a8 122a 1d47 303e
00000130: 2cbe 7f2b e917 f03d 2393 0bbe 5370 32be
00000140: fbf0 9bba 6418 b5bb 7626 c1bd dcab b131
00000150: d5d4 e6a8 5f8c e03d e15a 62bc 29ad 52bd
00000160: 65f4 433e 3858 93bc eae8 48bb 5a44 722b
00000170: 8289 5fbd df0f dfbd f143 8bbd 10b0 c59e
00000180: 198f 6039 e49d f3b7 d3ae 108a dbf4 9fba
00000190: 84ff 62bd 785c 7b91 9f2f 1cbd 130f da3a
000001a0: 704e f029 0b94 d1a0 d9d8 5c37 64bb cf2f
000001b0: 1289 b13d 3f03 1ebe 5141 9abd af4d 0a3e
000001c0: c98e d83d b998 e93d 28d0 0b3c 63d4 afb5
000001d0: 5a59 0500 2602 6bbe a33a 2dab 932c 0b20
000001e0: 558f db3d 362c abbd 3c86 0580 498a 193b
000001f0: 8f43 aabd c2f3 95bd 6b5b 5e3b b736 4d3e
00000200: e249 e426 7f37 49ba cd03 cab5 40f8 9d21
00000210: 0192 0600 0a77 0500 63bc 8116 399d 4a3b
00000220: e2e5 a9b9 6e69 0580 4c7c 0500 42de b639
00000230: d086 0580 9d62 0500 6d20 d8ba 75e6 d4b8
00000240: 3202 0680 7d61 0580 d6f1 caba ea37 23b0
00000250: 0c15 d4af 296e dcb9 5bce 583a a102 d6ba
00000260: 7724 7839 b5f6 91b8 5379 0580 a073 0500
00000270: 1ff2 13b9 fc58 0580 062e 20ba 277d 0500
00000280: b87e 0500 6772 0500 63f1 8c30 81a1 0500
00000290: 216a d484 a5bd 7132 b441 a739 5e66 0580
000002a0: 3af1 0500 26c2 7ab8 5775 0500 1d88 0500
000002b0: ddc1 433a e1e6 83b8 9a87 0580 44fa 973a
000002c0: 795f 773b 442d 8838 1827 06bb 80e4 0500
000002d0: 7ffc 27ae 3282 dfb8 c67f 0580 ddd8 0500
000002e0: 0b61 0580 836d 0500 b816 920e 7c73 0580
000002f0: 975a 3839 3657 0500 5661 0580 8600 1f39
00000300: 81f1 5930 ba4f 8b32 8d0b 45aa f695 9cae
00000310: 3248 2911 0e00 73a6 b7d5 c729 d74e 43aa
00000320: 2dd4 a730 22d1 ed98 8baf 2221 c10d 84b3
00000330: f8b0 6118 fa08 0ea8 8eed a533 4521 7d2a
00000340: ac57 06a8 b770 ed20 d63e 06b1 5a81 c831
00000350: 098f 8c34 8890 2f32 2c3f 1bb7 a413 de32
00000360: 80f0 10b4 396d 0b26 2642 8319 5edf 039d
00000370: 2f92 43b4 6f04 592a 817e a127 438e 0d8a
00000380: da5f e795 ce79 1323 9d14 1daa cf74 8020
00000390: 14b8 0e2a c77f 332a 8624 a8b1 371e b91e
000003a0: 6e4c 6f9e dfcd 1b2a 476a 3ea8 3f89 0f13
000003b0: 13a6 a730 a09e f3b2 0acb 13aa f1de 132a
000003c0: 579f 8cb6 e835 ed2e 38db 6b36 c959 8ba1
000003d0: b2e3 9528 2452 de35 41da 1e9a dafb 3794
000003e0: d0ac 9122 56ba 13aa 5bf3 d126 007c a712
000003f0: ee8a afb5 64c5 ce15 bf28 18a3 d893 3731

module.lstm.bias_ih_l0 f4 [256]
-0.10147144 -0.0034088504 0.0014881182 -1.8862178e-06 5.3066273e-17 -0.0008330443 -6.4591217e-09 -2.1428031e-08
2.048112e-05 2.1350988e-09 1.9004278e-07 0.0024798084 0.0038312727 0.012887282 -0.011710413 0.08190752
0.00017619012 -5.115806e-05 -7.510244e-05 0.00030433454 -6.983427e-07 0.20448023 6.4175336e-05 0.11537402
-0.11752967 -0.02041383 1.5320586e-08 1.5029685e-09 2.6577847e-05 0.038959015 0.07173063 -4.881335e-06
0.0074223136 2.163721e-05 0.009075764 -2.0938085e-06 -0.009463591 0.028684786 0.05407916 -6.97714e-05
1.0236908e-09 0.029197473 0.01147986 0.0030415845 0.012131664 -2.7817917e-14 5.8136244e-05 -6.454287e-05
0.0035304865 -0.00602903 0.00069608685 -2.7673317e-05 -5.2590432e-05 -5.108446e-09 2.355026e-05 1.5758707e-14
-0.14174366 -2.0058587e-06 0.009839214 6.336033e-13 -0.1160845 -0.02455932 -1.8997278e-05 0.1571381
3.4528832e-06 -0.0018236301 0.012500509 5.767786e-14 1.8739218e-20 -2.7522424e-06 -1.4626274e-33 8.8155294e-10
0.064668715 2.1339839e-09 1.890896e-07 0.039070703 1.268803e-06 3.038679e-08 -3.7156105e-11 0.00046285513
6.0733448e-05 9.696925e-08 0.014928242 0.00015564264 -3.0407107e-11 -0.01900556 -0.06185639 -0.0047545973
0.004490341 -9.293066e-09 -2.0028084e-07 4.0206263e-10 -7.763794e-10 0.0016244993 3.4265173e-05 1.8665266e-20
7.1859504e-14 1.0313792e-05 0.004258511 -4.1419113e-08 -0.00012272205 8.434355e-05 0.028850408 -2.2686522e-09
1.4804196e-14 4.7134304e-08 -0.0017596972 3.7780894e-12 0.012297864 -6.1150246e-08 -0.00030618193 -3.2251e-05
7.23046e-06 -0.047499426 4.5314433e-17 -9.166063e-07 0.0001172166 0.03161646 2.6051464e-07 2.3284938e-18
-1.6307151e-09 3.2919955e-15 0.013769468 6.2276974e-13 -0.036334094 -0.006301649 -4.4622643e-06 -4.2931435e-05
0.04024762 3.915319e-06 8.858538e-09 -8.13912e-10 1.6420745e-11 0.00017484943 -4.91363e-40 -0.00794346
-0.03643668 8.2990425e-08 1.2908976e-06 0.04116889 -0.029549265 0.00023024071 -0.010215217 -0.02385662
-9.4719835e-05 1.6185942e-06 1.8686006e-07 -0.010974523 -0.005889298 0.03635186 0.12675558 0.0005736514
2.0801936e-06 -4.2810432e-05 0.0048271664 -8.425996e-08 0.025282815 0.0019569641 -1.891655e-05 4.792394e-13
-3.3290724e-16 3.377654e-06 -1.3481396e-05 -5.5714732e-08 -0.00093606085 0.007182884 -0.06493046 3.0390953e-07
-9.470798e-08 3.0145615e-19 -0.0029334584 0.00023673562 0.015396949 -2.660153e-05 -0.024055216 1.7574331e-37
-4.91463e-40 0.019642327 -0.00025429012 -2.524672e-06 0.0061358637 -0.012514743 8.232275e-07 -2.7451846e-10
2.1991662e-05 0.00022338732 0.00015268096 -7.2552986e-10 1.1389451e-28 2.4794072e-21 4.92754e-40 0.11300559
0.007177227 5.176022e-05 7.076323e-16 1.6672498e-13 5.6600436e-17 -0.00039334808 -0.008826365 -1.458618e-06
0.09327838 6.731425e-06 3.9568712e-07 -0.012684929 6.456816e-07 -0.045206934 0.11342856 0.017520985
0.0028500482 4.269436e-07 -0.060900934 -0.31857038 -0.20157014 4.555017e-05 0.00044617328 -0.042633303
-0.006511034 0.115548946 -0.00020727697 7.661327e-10 -1.6567758e-06 0.11961027 0.09950296 3.4159722e-20
-0.013774603 2.2884558e-05 4.938909e-05 4.088807e-05 2.755796e-19 0.02207828 0.1418159 1.1808265e-08
1.9843471e-09 1.9294977e-05 2.1000558e-05 -2.9258093e-05 0.11287687 -0.05439984 0.0064299945 -0.0006929649
-0.09399617 0.2689193 -0.0047330423 -5.439735e-11 -0.006995314 0.014584699 1.0856656e-06 1.6134126e-14
-6.904845e-24 9.643131e-12 0.011315946 -0.0011441997 0.00025076861 -3.8858724e-21 -0.0012963231 0.06787658
00000000: 42d0 cfbd 0567 5fbb f60c c33a f329 fdb5
00000010: 99b9 7424 a860 5aba 09ef ddb1 bd10 b8b2
00000020: dfce ab37 0eb9 1231 900e 4c34 4884 223b
00000030: 1716 7b3b 2e25 533c 08dd 3fbc 21bf a73d
00000040: adbf 3839 8c92 56b8 5180 9db8 178f 9f39
00000050: bf75 3bb5 4463 513e df95 8638 3749 ec3d
00000060: 65b3 f0bd e83a a7bc 539a 8332 0191 ce30
00000070: 7ef3 de37 7d93 1f3d 82e7 923d 59ca a3b6
00000080: e136 f33b 8e81 b537 83b2 143c 5b83 0cb6
00000090: 2d0d 1bbc 5bfc ea3c 1c82 5d3d 3c52 92b8
000000a0: ebb1 8c30 8a2f ef3c 0616 3c3c 5255 473b
000000b0: e3c3 463c c08f faa8 51d7 7338 315b 87b8
000000c0: bc5f 673b 2b8f c5bb 9979 363a ff23 e8b7
000000d0: 8c94 5cb8 5e86 afb1 cc8d c537 1bf1 8d28
000000e0: 4025 11be 649c 06b6 a834 213c ee57 322b
000000f0: b6bd edbd a130 c9bc 585c 9fb7 cfe8 203e
00000100: 15b8 6736 df06 efba efce 4c3c 06e1 8129
00000110: a6fc b01e 2ab3 38b6 4a05 f388 c651 7230
00000120: 0871 843d 71a5 1231 8e08 4b34 9a08 203d
00000130: bd4b aa35 a182 0233 0e6a 23ae 5dab f239
00000140: 0bbc 7e38 693d d033 9695 743c 0134 2339
00000150: 5cbb 05ae 8cb1 9bbc 205d 7dbd 74cc 9bbb
00000160: b623 933b 56a7 1fb2 c70c 57b4 4909 dd2f
00000170: d868 55b0 27ed d43a f3b7 0f38 d849 b01e
00000180: 2fd0 a129 6609 2d37 fb8a 8b3b cce4 31b3
00000190: f3ae 00b9 99e1 b038 b157 ec3c 8de6 1bb1
000001a0: 2758 8528 b770 4a33 a4a5 e6ba 01ee 842c
000001b0: fb7c 493c b451 83b3 0b87 a0b9 3f45 07b8
000001c0: 2e9d f236 c28e 42bd d7f9 5024 b50c 76b5
000001d0: 2fd2 f538 4380 013d dcdc 8b34 01d0 2b22
000001e0: b01f e0b0 9936 6d27 5699 613c 4a4b 2f2b
000001f0: 0fd3 14bd 107e cebb 8fba 95b6 4711 34b8
00000200: b0da 243d 5660 8336 4330 1832 f7b9 5fb0
00000210: 3b70 902d c957 3739 b859 0580 4925 02bc
00000220: a13e 15bd 7838 b233 e742 ad35 b6a0 283d
00000230: 4d11 f2bc c56c 7139 ba5d 27bc f56e c3bc
00000240: 53a4 c6b8 793e d935 b4a3 4834 7cce 33bc
00000250: 03fb c0bb b0e5 143d 37cc 013e 1861 163a
00000260: 7499 0b36 5a8f 33b8 352d 9e3b 67f2 b4b3
00000270: e81d cf3c 6940 003b fbae 9eb7 d7e4 062b
00000280: 70e8 bfa5 a7ab 6236 282e 62b7 ff4a 6fb3
00000290: fb61 75ba 665e eb3b 43fa 84bd 0229 a334
000002a0: 4362 cbb3 c4f2 b120 443f 40bb 3c3c 7839
000002b0: 7c43 7c3c 5a26 dfb7 720f c5bc 9b35 6f02
000002c0: 005a 0580 f2e8 a03c 3e52 85b9 896d 29b6
000002d0: 5b0f c93b a30a 4dbc c3fb 5c35 0aeb 96af
000002e0: bc7a b837 143d 6a39 fc18 2039 a06e 47b0
000002f0: e260 1011 b656 3b1d 995d 0500 7a6f e73d
00000300: f22e eb3b 1d19 5938 0cf6 4b26 34b7 3b2a
00000310: 0083 8224 493a ceb9 759c 10bc bcc5 c3b5
00000320: bc08 bf3d 80de e136 d36e d434 73d4 4fbc
00000330: e752 2d35 e82a 39bd 3c4d e83d 2b88 8f3c
00000340: e0c7 3a3b ae36 e534 4273 79bd a81b a3be
00000350: 6768 4ebe 1f0d 3f38 5dec e939 42a0 2ebd
00000360: 835a d5bb eda4 ec3d 7d58 59b9 cc97 5230
00000370: 625e deb5 3bf6 f43d 35c8 cb3d 9250 211f
00000380: dfae 61bc 37f8 bf37 2227 4f38 3b7f 2b38
00000390: 69ac a220 82dd b43c 3038 113e 4cdd 4a32
000003a0: 015d 0831 a6db a137 5b2a b037 476f f5b7
000003b0: fd2b e73d 5ed2 5ebd b4b2 d23b 16a8 35ba
000003c0: 1081 c0bd caaf 893e a317 9bbb f93d 6fae
000003d0: f238 e5bb a9f4 6e3c 30b7 9135 c352 9128
000003e0: 238f 0599 cda4 292d 8466 393c f9f8 95ba
000003f0: 9879 8339 dacd 929d 63e9 a9ba e002 8b3d

module.lstm.bias_hh_l0 f4 [256]
-0.083098195 0.1321516 0.0024255225 -2.5905108e-06 5.3072047e-17 -0.00029510813 -6.2931003e-09 -2.1441615e-08
2.0488469e-05 2.1367712e-09 1.9096198e-07 0.0025099854 0.0028794685 0.013407519 -0.011474656 0.015246944
0.00017329228 -0.0001089592 -7.512402e-05 0.00030439775 -6.970526e-07 0.17674004 6.4182655e-05 0.11752829
-0.14657232 -0.015720291 1.5014011e-08 1.4977641e-09 4.6015866e-06 0.06893206 0.0058967764 -4.1773583e-06
0.011965464 2.1636128e-05 0.027425254 -2.0864009e-06 0.091946125 0.025290102 0.13025133 -9.3731396e-05
1.0226273e-09 0.029428013 0.0117619755 -0.009281913 -0.0047681397 -4.2290376e-14 5.8237914e-05 -6.8460766e-05
0.0020923158 -0.005951901 0.0009138543 -7.646185e-05 -5.1982115e-05 -5.1111484e-09 2.361415e-05 1.6183117e-14
-0.053236224 -2.0489767e-06 0.0004149115 6.3346377e-13 -0.1074439 -0.024820285 -1.901164e-05 0.10442019
3.4471802e-06 0.021052422 0.012665583 5.7674155e-14 1.8752808e-20 -2.7531844e-06 8.9660604e-33 8.783662e-10
0.08493783 2.128966e-09 1.8868442e-07 0.0839116 1.2747138e-06 3.0401875e-08 -3.7160258e-11 0.00042829924
5.6564808e-05 9.69552e-08 0.014966347 0.00012628651 -2.9813978e-11 0.03172612 -0.08586402 -0.0046568583
0.0044405116 -9.28176e-09 -2.0063833e-07 3.975533e-10 1.8592584e-09 0.0016158784 3.4049037e-05 1.8596435e-20
7.143525e-14 1.0312262e-05 0.0042856466 -4.1425107e-08 -0.00012266854 8.380647e-05 0.028706718 -2.195392e-09
1.4641957e-14 4.7240707e-08 -0.0017638175 3.788289e-12 0.007821189 -4.8746244e-08 -0.00030727536 -3.2198426e-05
6.941254e-06 -0.025974799 4.6369813e-17 -9.1440404e-07 0.000113744594 0.03161127 2.2099482e-07 2.2112089e-18
9.514398e-09 3.30145e-15 0.0142920185 6.217071e-13 -0.063497014 -0.0062778965 -4.4553726e-06 -4.284715e-05
0.042538233 3.917943e-06 -8.945735e-09 -8.1544804e-10 1.6213482e-11 0.00037306562 -4.91255e-40 -0.00800605
-0.04767207 8.300658e-08 1.2824817e-06 0.103553385 -0.01928761 0.00016337162 -0.013805336 -0.024373895
-9.192625e-05 1.6185991e-06 1.8679997e-07 -0.010972016 -0.004354439 0.029746722 0.056062467 0.00062928756
2.1011535e-06 -4.2913296e-05 0.004825216 -8.495664e-08 -0.0041299574 0.001853521 -1.8956242e-05 4.792181e-13
-3.3287857e-16 3.3637798e-06 -1.3483507e-05 -5.5714946e-08 0.00046905808 -0.004541337 0.03021143 3.043616e-07
-9.441698e-08 9.339796e-19 -0.0029284183 0.00015082638 0.015224578 3.068259e-05 -0.024097903 -1.4480069e-37
4.91028e-40 0.019565824 -0.023841357 -2.5390475e-06 0.0060957097 -0.012388129 8.333965e-07 -2.850071e-10
9.18663e-05 0.00022337628 0.00015297232 -7.2806444e-10 9.9078214e-29 2.4804463e-21 4.93734e-40 0.19538075
0.07536211 5.1759966e-05 8.4061726e-16 6.003921e-14 5.659256e-17 -0.00044329418 -0.008831229 -1.3268319e-06
0.062193442 -4.630211e-05 3.948057e-07 -0.013038151 6.471459e-07 -0.15935236 0.044337228 -0.03241637
0.0028460128 4.2516618e-07 -0.0022724492 -0.31092453 -0.08241513 4.553663e-05 0.0004372737 -0.06452473
-0.006511163 0.068589866 -0.00020622263 7.813641e-10 -1.6485411e-06 0.067950144 0.13376927 3.4416488e-20
-0.013753745 2.2818953e-05 4.9396353e-05 3.7287115e-05 1.2692104e-19 0.020171866 0.14209965 1.1789389e-08
1.9846653e-09 1.9309931e-05 2.100369e-05 -2.8488897e-05 0.04948061 -0.073044255 0.007220354 -0.00069317786
-0.067882575 0.1827977 -0.0047327103 -5.439791e-11 0.04138936 0.015604171 1.0861712e-06 1.6586967e-14
-6.936563e-24 9.874128e-12 -0.005563629 -0.0011330844 0.0002472094 -3.889031e-21 -0.0008793007 0.16415516
00000000: 632f aabd c052 073e 84f5 1e3b a3d8 2db6
00000010: 6ac0 7424 beb8 9ab9 b23a d8b1 9c2e b8b2
00000020: a7de ab37 7ad6 1231 3b0b 4d34 917e 243b
00000030: 77b5 3c3b 36ab 5b3c 3200 3cbc 51ce 793c
00000040: cbb5 3539 0681 e4b8 e78b 9db8 9397 9f39
00000050: 171d 3bb5 57fb 343e cd99 8638 acb2 f03d
00000060: 0e17 16be d7c7 80bc 29f8 8032 e4d9 cd30
00000070: 5467 9a36 402c 8d3d bf39 c13b 3c2b 8cb6
00000080: cb0a 443c 3b7f b537 edaa e03c 1804 0cb6
00000090: 404e bc3d 302d cf3c 9b60 053e a991 c4b8
000000a0: 808c 8c30 0413 f13c 4db5 403c 2a13 18bc
000000b0: 0e3e 9cbb 7c75 3ea9 7c44 7438 9892 8fb8
000000c0: 3c1f 093b 2a08 c3bb b98f 6f3a 255a a0b8
000000d0: 5f07 5ab8 239e afb1 0017 c637 bac3 9128
000000e0: 3a0e 5abd 2781 09b6 7b88 d939 e04d 322b
000000f0: 8c0b dcbd e953 cbbc 307b 9fb7 41da d53d
00000100: 1b56 6736 2176 ac3c 4e83 4f3c e3de 8129
00000110: 821d b11e 59c3 38b6 c137 3a0a 8771 7130
00000120: e3f3 ad3d 2a4d 1231 2e99 4a34 d8d9 ab3d
00000130: d516 ab35 3793 0233 bb6e 23ae 5a8d e039
00000140: 0040 6d38 af35 d033 6935 753c c76b 0439
00000150: 8e1f 03ae 3ff3 013d 7ad9 afbd 8f98 98bb
00000160: b681 913b 9d75 1fb2 0b6f 57b4 a78e da2f
00000170: d788 ff30 e2cb d33a e0cf 0e38 6ca3 af1e
00000180: 9edb a029 d402 2d37 9c6e 8c3b 63eb 31b3
00000190: 96a0 00b9 42c1 af38 5a2a eb3c bfdd 16b1
000001a0: 0ee2 8328 b5e5 4a33 e52f e7ba e049 852c
000001b0: 7224 003c 105d 51b3 cd19 a1b9 cc0c 07b8
000001c0: ebe8 e836 1ac9 d4bc d0d7 5524 5e75 75b5
000001d0: 2a8a ee38 d27a 013d 984a 6d34 8e28 2322
000001e0: c474 2332 01e5 6d27 1229 6a3c b8fe 2e2b
000001f0: b90a 82bd d0b6 cdbb 5c7f 95b6 c7b6 33b8
00000200: 923c 2e3d e076 8336 c2af 19b2 0e26 60b0
00000210: 849d 8e2d 0598 c339 6b59 0580 cf2b 03bc
00000220: ca43 43bd 5a41 b233 bc21 ac35 cc13 d43d
00000230: 0d01 9ebc bc4e 2b39 c72f 62bc c3ab c7bc
00000240: 88c8 c0b8 a43e d935 2f93 4834 f8c3 33bc
00000250: afaf 8ebb 66af f33c c2a1 653d c6f6 243a
00000260: 8b01 0d36 cdfd 33b8 d81c 9e3b 6871 b6b3
00000270: 9854 87bb d8f1 f23a 3804 9fb7 4ee3 062b
00000280: 35e4 bfa5 4cbd 6136 3937 62b7 3b4b 6fb3
00000290: e9eb f539 7fcf 94bb f67d f73c 2467 a334
000002a0: 49c2 cab3 c0d4 8921 b5ea 3fbb 2627 1e39
000002b0: 8270 793c 2eb1 0038 f768 c5bc ad17 4582
000002c0: c958 0500 8248 a03c f34e c3bc 8164 2ab6
000002d0: 85be c73b 94f7 4abc 92b6 5f35 2faf 9caf
000002e0: 58a8 c038 1d3a 6a39 3267 2039 fb20 48b0
000002f0: 7031 fb10 cf6a 3b1d 5460 0500 e411 483e
00000300: 7357 9a3d d718 5938 9b4a 7226 4032 8729
00000310: 5a7e 8224 f069 e8b9 dcb0 10bc 9915 b2b5
00000320: 8dbe 7e3d 8334 42b8 aff5 d334 f89d 55bc
00000330: 87b7 2d35 442d 23be f49a 353d 07c7 04bd
00000340: 2c84 3a3b 6542 e434 5fed 14bb 8031 9fbe
00000350: 44c9 a8bd 96fe 3e38 e241 e539 8b25 84bd
00000360: 985b d5bb d878 8c3d 773d 58b9 9cc7 5630
00000370: 7143 ddb5 7229 8b3d d0fa 083e fb86 221f
00000380: 6357 61bc 546b bf37 ee2e 4f38 bc64 1c38
00000390: 88d7 1520 783f a53c 9282 113e 488a 4a32
000003a0: 9a62 0831 c3fb a137 1531 b037 71fb eeb7
000003b0: 2eac 4a3d 3a98 95bd b898 ec3b 61b6 35ba
000003c0: 0506 8bbd 522f 3b3e da14 9bbb 9a3e 6fae
000003d0: e487 293d a3a8 7f3c 8fc8 9135 f166 9528
000003e0: 322c 0699 1fb5 2d2d 1a4f b6bb 0184 94ba
000003f0: e29b 8139 66ec 929d df80 66ba 4a18 283e

module.intent_predictor.weight f4 [1, 64]
-0.6699985 0.30001885 0.015109538 0.03433694 -0.0026450222 -0.11628938 0.04294006 -0.058990136
-0.16317032 0.048909593 -0.0050529805 -0.16053867 -0.03570258 0.28919783 -0.16276866 0.15624267
0.009299731 -0.0041463533 -0.05623809 0.37420928 0.39300346 0.3484239 -0.1904699 -0.15384243
0.19260538 0.2898997 0.02737095 0.0048559746 -0.012678933 -0.23493396 0.44176775 0.0075463136
0.07074552 0.00044815007 0.29379022 0.017610954 0.9301389 -0.24140391 0.3267526 -0.0063460777
0.001031401 -0.10882662 0.031673133 -0.066113636 0.17669699 -0.1202432 -0.063521944 0.03889155
0.13946001 0.32779643 0.08958917 -0.025717309 0.27650523 0.75975597 -0.0058963057 0.0091968635
0.34771731 -0.023245716 -0.70504147 0.0305368 0.7730448 -0.043523114 -0.015914854 -0.9273314
00000000: 0685 2bbf 129c 993e ff8d 773c e4a4 0c3d
00000010: 1c58 2dbb 2029 eebd ebe1 2f3d a49f 71bd
00000020: 1f16 27be 6d55 483d 7993 a5bb 4064 24be
00000030: de3c 12bd bd11 943e d4ac 26be 14fe 1f3e
00000040: e65d 183c 22de 87bb e959 66bd 5c98 bf3e
00000050: c037 c93e 9e64 b23e 8b0a 43be df88 1dbe
00000060: 583a 453e bc6d 943e 0b39 e03c de1e 9f3b
00000070: 4dbb 4fbc 8792 70be 622f e23e 1147 f73b
00000080: 07e3 903d aff5 ea39 ac6b 963e d944 903c
00000090: 951d 6e3f 9632 77be 1e4c a73e c2f2 cfbb
000000a0: 1330 873a 7ee0 debd b0bb 013d 9666 87bd
000000b0: 0ef0 343e 1142 f6bd cb17 82bd bf4c 1f3d
000000c0: 9bce 0e3e efd4 a73e 877a b73d 1bad d2bc
000000d0: 1892 8d3e 5e7f 423f cc35 c1bb 71ae 163c
000000e0: 0108 b23e cd6d bebc 997d 34bf 5028 fa3c
000000f0: 44e6 453f 4b45 32bd de5f 82bc 9765 6dbf
