PSI-Intent-Prediction/ckpts/ped_intent/PSI2.0/lstm_int_bbox/20241128170305/latest.pth (torch, 74755 bytes, 6 tensors)

module.intent_predictor.weight f4 [1, 64]
0	0x3dc01ab7	0.093800955
1	0xbe3633ca	-0.17793193
2	0x3cabf648	0.02099146
3	0xbd595220	-0.053056836
4	0xbf917f8d	-1.136705
5	0xbdecc30a	-0.11560638
6	0xbf1bef15	-0.60911685
7	0xbb871140	-0.0041219294
8	0x3e10c7fb	0.14138786
9	0x3c26175e	0.010137407
10	0xbf157e10	-0.5839548
11	0xbcd6482e	-0.026157465
12	0x3f739a79	0.9515758
13	0xbc2a1750	-0.010381535
14	0x3dfe2558	0.124094665
15	0x3d817b90	0.06322396
16	0xb971e800	-0.00023069978
17	0xbe888768	-0.26665807
18	0xbded703f	-0.11593675
19	0x3da6173b	0.081098996
20	0x3dac605c	0.084168166
21	0xbc2a7fd3	-0.010406452
22	0x3dfeadd0	0.12435496
23	0xbea36c59	-0.319186
24	0xbe9f3c3a	-0.31100637
25	0xbddb79a2	-0.10716559
26	0x3ce3a428	0.027788237
27	0xbdb52222	-0.08844401
28	0xbc84a098	-0.016189858
29	0xbea82bbc	-0.32845867
30	0xbef598d7	-0.4796817
31	0xbddb5967	-0.107104115
32	0xbeb40ce3	-0.35166082
33	0xbcc258e0	-0.02372402
34	0x3ea20ce8	0.31650472
35	0x3e706f7e	0.23480031
36	0xbd05c0dc	-0.03265463
37	0x3e249324	0.16071755
38	0xbdb72e1a	-0.0894434
39	0x3ee06d14	0.4383322
40	0x3dd347d9	0.10316438
41	0x3f2b5ee1	0.6694165
42	0x3b30194d	0.002687055
43	0x3dc54568	0.09632379
44	0x3e3fe0f0	0.1873815
45	0xbe188154	-0.14893085
46	0x3d366198	0.044526666
47	0x3f1d36b1	0.6141158
48	0xbf092580	-0.53572845
49	0x3e85ae74	0.2610966
50	0x3df3c86a	0.1190346
51	0xbdde92fc	-0.10867879
52	0x3c144a6b	0.009050946
53	0xbd933b88	-0.07189089
54	0x3e644014	0.22290069
55	0xbf467f9b	-0.7753846
56	0xbdb53e8c	-0.088498205
57	0xbdd0e464	-0.10199812
58	0x3d0b90b8	0.03407356
59	0x3e15f74f	0.14645122
60	0xbf0ee4cb	-0.5581786
61	0x3e42d79e	0.19027564
62	0xbcde5380	-0.027139425
63	0xbc918528	-0.01776369

module.encoder.weight_ih_l0 f4 [256, 4]
0	0x3df156f7	0.11784165
1	0xbd9871fc	-0.07443616
2	0xbdd68387	-0.104743056
3	0xbd794b75	-0.060862977
4	0xbde27161	-0.110567816
5	0x3dd13d7d	0.10216806
6	0x3c12c9ea	0.008959273
7	0x3d0f3bba	0.03496907
8	0x3d0e8f0c	0.03480439
9	0x3d1c3998	0.038140863
10	0xbdbb09a4	-0.09132698
11	0x3d9b02ac	0.07568869
12	0xbde64856	-0.11244266
13	0xbd75ebe8	-0.06003943
14	0xbc2e6860	-0.010645002
15	0xbda6b108	-0.08139235
16	0x3dc34c81	0.09536076
17	0x3de6ac74	0.112633616
18	0xbd8c04bc	-0.068368405
19	0xbdbef1f1	-0.093234904
20	0xbdb22482	-0.086983696
21	0x3c7ffe60	0.015624613
22	0x3d636c50	0.055523217
23	0x3ced1888	0.028942361
24	0xbd1fbc61	-0.03899801
25	0x3d8bfe25	0.068355836
26	0xbe2d2eb9	-0.16912355
27	0xbd374663	-0.04474486
28	0xbdd43e34	-0.10363427
29	0xbdd312aa	-0.10306294
30	0x3ce9e1c8	0.028550044
31	0xbd66e750	-0.05637294
32	0x3e03ea72	0.12882403
33	0x3d8e81c0	0.069583416
34	0x3e0e915b	0.13922636
35	0xbc4ebf14	-0.012618799
36	0x3e084ef4	0.13311368
37	0xbd0c7197	-0.034288015
38	0x3b45dd0a	0.0030191564
39	0xbdbd225e	-0.09235071
40	0xbda40299	-0.08008308
41	0xbde5fdef	-0.112300746
42	0x3c92d072	0.01792166
43	0x3d52440b	0.051334422
44	0x3d2ce76c	0.04221289
45	0x3d7308a4	0.059334412
46	0x3dfd391e	0.1236441
47	0x3df77a54	0.12083879
48	0x3d5b1ad5	0.053492386
49	0x3dd20802	0.102554336
50	0xbde44df9	-0.111476846
51	0xbd29cf53	-0.041457485
52	0xbb509f00	-0.0031833053
53	0xbde7b502	-0.113138214
54	0xbdbb4aba	-0.09145112
55	0xbdaf908c	-0.08572492
56	0x3d89de18	0.06731814
57	0x3d92fae0	0.07176757
58	0xbdd22402	-0.10260774
59	0x3d3393fc	0.0438423
60	0x3d9dcc42	0.07704975
61	0xbd7ff5e8	-0.062490374
62	0x3dd8c78c	0.105849355
63	0xbde2eca4	-0.11080292
64	0x3dd39ef8	0.10333055
65	0xbd8bc2ee	-0.06824289
66	0xbd8fd790	-0.07023537
67	0x3cc2de40	0.023787618
68	0xbd9a9e14	-0.07549682
69	0x3df4e290	0.11957276
70	0x3db059f6	0.08610909
71	0x3d5b6a0c	0.05356793
72	0x3d21290f	0.039345797
73	0xbd529883	-0.051414978
74	0xbdf7cb7b	-0.12099358
75	0xbc3e5e43	-0.011619153
76	0x3dede173	0.11615267
77	0xbbb7b3e2	-0.0056061605
78	0x3de1ef7d	0.11032007
79	0xbcf46a9f	-0.029835997
80	0x3c826e98	0.015921876
81	0x3ca9fec8	0.020751372
82	0xbdfc8ec8	-0.12331921
83	0xbdfe2d50	-0.124109864
84	0x3c50a5c0	0.01273483
85	0x3d7b39e0	0.06133449
86	0x3df8b15c	0.121432036
87	0x3dbea41a	0.09308644
88	0xbccf0d50	-0.025274903
89	0xbca58640	-0.020205617
90	0xbc2c1130	-0.010502145
91	0xbdb9bae0	-0.09068847
92	0x3d4ab87f	0.049492355
93	0xbd0788d2	-0.033089466
94	0xbd9a9dee	-0.07549654
95	0x3dec86b8	0.11549133
96	0x3bce8429	0.006302376
97	0xbdcc55f9	-0.099773355
98	0x3d5616b6	0.052267753
99	0xbdc1652b	-0.094431244
100	0xbdd46490	-0.10370743
101	0xbda84432	-0.08216132
102	0xbdd92a1e	-0.10603736
103	0xbdad2206	-0.08453755
104	0x3dbb18fc	0.09135625
105	0xbc184eb0	-0.009296104
106	0x3d95afa2	0.0730889
107	0xbd803f82	-0.06262113
108	0x3d1b7bec	0.037959978
109	0xbcd18a78	-0.025578722
110	0xbd2c9824	-0.04213728
111	0xbdd95038	-0.10611004
112	0xbdbf0b76	-0.09328358
113	0xbca7dca0	-0.020490944
114	0xbcc823e0	-0.024431169
115	0x3dab5b5a	0.08367033
116	0xbd479e84	-0.048735157
117	0x3dd1f732	0.10252227
118	0x3dd16592	0.10224451
119	0xbc1e8960	-0.009676307
120	0x3e5af44b	0.21382253
121	0xbdfdae3b	-0.123867474
122	0x3d57c21b	0.052675348
123	0x3d6ae251	0.05734474
124	0x3c4d1000	0.012516022
125	0x3df492bc	0.1194205
126	0x3cc445f0	0.02395913
127	0xbb9c8c60	-0.004777476
128	0xbe2c516c	-0.16827935
129	0x3c1c7deb	0.009551506
130	0xbda4e37c	-0.08051202
131	0x3dbce2d4	0.092229515
132	0xbd3a0cc0	-0.045422316
133	0xbd9faec4	-0.07797006
134	0x3dcf0324	0.10108021
135	0xbd86be38	-0.0657925
136	0x3c86c4e3	0.016451305
137	0x3c95299d	0.01820832
138	0x3dbb65d4	0.091502815
139	0xbe0eb8f5	-0.13937743
140	0x3da1569f	0.0787785
141	0xbdb6dae0	-0.08928466
142	0x3d2a4a75	0.041574914
143	0x3ddf7ee7	0.109128766
144	0xbdea3308	-0.11435515
145	0x3ca82300	0.020524502
146	0xbd93f348	-0.072241366
147	0x3d0818e4	0.033226863
148	0xbdd35f29	-0.10320885
149	0x3db6bc13	0.08922591
150	0xbddbc9b9	-0.10731835
151	0x3d39f544	0.04539992
152	0x3b3609ea	0.0027776905
153	0x3d40212d	0.04690664
154	0xbdce4c12	-0.10073103
155	0xbd7723b8	-0.0603368
156	0x3e681c0a	0.22666946
157	0xbc8ad57e	-0.016947504
158	0x3e0921d0	0.13391805
159	0xbd790926	-0.06079974
160	0x3d90f883	0.0707865
161	0xbdb46775	-0.08808795
162	0x3dd9982b	0.10624727
163	0xbd9b4022	-0.07580592
164	0x3df7abd6	0.12093322
165	0xbc1b1ae0	-0.009466857
166	0x3cd91f50	0.026504189
167	0x3de63d28	0.112421334
168	0xbd345129	-0.044022713
169	0x3cce251d	0.025164181
170	0xbdea3ad0	-0.11436999
171	0x3de1de75	0.110287584
172	0xbd9909f6	-0.07472603
173	0x3ce713d8	0.028207704
174	0xbcfd7778	-0.030940756
175	0xbde27528	-0.11057502
176	0xbe028ab6	-0.12748227
177	0x3d8835b9	0.06650872
178	0x3dd57cae	0.104241714
179	0xbd9ebc46	-0.07750754
180	0x3dc53020	0.0962832
181	0xbd4a61e6	-0.04940977
182	0x3d4aa5b9	0.04947445
183	0x3dacbc71	0.0843438
184	0x3cbfcf48	0.02341427
185	0x3d54ac40	0.051922083
186	0x3d6f3128	0.05839649
187	0xbbb8c300	-0.00563848
188	0xbb993ac8	-0.0046761967
189	0x3e311311	0.1729243
190	0xbc5ed2d2	-0.013600068
191	0xbd822b95	-0.06355969
192	0xbd84535a	-0.064612105
193	0xbdee5758	-0.11637753
194	0x3ca2cb69	0.019872384
195	0x3d94d622	0.07267405
196	0x3b84aa60	0.0040486306
197	0x3a383500	0.00070269406
198	0x3c467100	0.012111902
199	0x3d7bbcb0	0.061459243
200	0xbcc29560	-0.023752868
201	0xbdf95450	-0.121742845
202	0xbb5e7400	-0.0033943653
203	0xbde3c66e	-0.11121832
204	0xbdef6c46	-0.116905734
205	0x3c94b458	0.0181524
206	0x3ce9d770	0.028545111
207	0xbdb34c56	-0.08754794
208	0x3aa6be72	0.0012721552
209	0x3cadc9c1	0.021214368
210	0xbcdcdcbf	-0.026960729
211	0xbd9d6473	-0.07685175
212	0xbd94b20a	-0.07260521
213	0xbd0f0260	-0.034914374
214	0x3d5dd1c4	0.054155126
215	0xbdc4d4ec	-0.09610924
216	0xbcf59da0	-0.029982388
217	0x3d136f94	0.03599508
218	0x3dbb58e8	0.09147817
219	0x3cb92628	0.022601202
220	0xbd7efcb2	-0.062252708
221	0x3de5e5b1	0.11225451
222	0xbd28e33a	-0.041232325
223	0x3dc18f05	0.09451107
224	0x3bc07320	0.005873099
225	0xbd019508	-0.031636268
226	0x3d8fd9a0	0.070239305
227	0x3d2bf1b8	0.041978568
228	0xbd644978	-0.055734128
229	0xbca67bd6	-0.020322721
230	0x3cc15d64	0.023604102
231	0xbd2c2956	-0.04203161
232	0xbdc08c64	-0.094017774
233	0xbda79c96	-0.08184163
234	0xbd9cdf52	-0.076597825
235	0xbce6c058	-0.028167889
236	0x3dc03cbe	0.09386586
237	0xbd534a98	-0.05158481
238	0x3d5b2568	0.05350247
239	0x3df4d27e	0.11954211
240	0xbd7c054a	-0.06152848
241	0x3d49e39f	0.049289342
242	0xbd72ddf0	-0.059293687
243	0xbc773c14	-0.015090007
244	0x3d926c6d	0.07149587
245	0x3d675e27	0.056486275
246	0xbd2d46a3	-0.042303693
247	0x3bcd0837	0.006257083
248	0xbdc55502	-0.096353546
249	0xbdb3e6d2	-0.0878426
250	0xbdde4e3c	-0.10854766
251	0xbd97b196	-0.07406919
252	0x3cd43968	0.02590628
253	0x3d316560	0.04330957
254	0x3c8501a8	0.016236141
255	0xbdf682a2	-0.12036635

module.encoder.weight_hh_l0 f4 [256, 64]
0	0xbd906d20	-0.07052064
1	0xbc295ac0	-0.010336578
2	0xbdd7ac1e	-0.105308756
3	0xbd0966fc	-0.03354548
4	0x3dc19d01	0.09453774
5	0xbdf7baf8	-0.12096208
6	0x3db0a3f0	0.086250186
7	0xbcf25880	-0.029583216
8	0x3de4d44f	0.11173307
9	0xbb33ad1d	-0.0027416416
10	0x3d84e0b1	0.06488169
11	0xbcf1e925	-0.029530117
12	0xbd2261c8	-0.039644033
13	0xbdda45a4	-0.10657814
14	0xbd11069c	-0.035406694
15	0x3d013ae0	0.03155029
16	0xbde81178	-0.11331457
17	0x3ce59a20	0.028027594
18	0xbd8b0452	-0.067879334
19	0x3dec86c8	0.11549145
20	0xbd971758	-0.07377499
21	0x3dcc78df	0.09983992
22	0x3db66288	0.08905512
23	0xbd1ff578	-0.039052457
24	0x3d8c1aba	0.06841035
25	0xbdecc15a	-0.115603164
26	0x3d71ebe8	0.05906287
27	0xbcdead40	-0.027182221
28	0xbdf68ffc	-0.120391816
29	0x3da99419	0.082802005
30	0xbdda988c	-0.10673627
31	0xbde3e70e	-0.111280546
32	0xbd772354	-0.060336426
33	0x3d9d2494	0.07672992
34	0x3cb48560	0.022036254
35	0x3dcce125	0.100038804
36	0xbcf52670	-0.029925555
37	0x3c1d9d40	0.009620011
38	0xbc921858	-0.017833874
39	0x3bdd19c0	0.0067474544
40	0x3cddf9fa	0.027096737
41	0x3d9c5661	0.07633663
42	0xbd9abeee	-0.07555948
43	0x3d209fc8	0.03921488
44	0xbd9c3de8	-0.07628995
45	0xbcbad9d4	-0.022808947
46	0xbde261de	-0.11053823
47	0x3d77fa56	0.060541473
48	0x3de8f836	0.113754675
49	0x3d0cd0da	0.034378864
50	0xbdc3f4a6	-0.09568147
51	0x3dd54512	0.10413565
52	0xbdf70266	-0.12061004
53	0xbdcbda56	-0.09953754
54	0xbde84eff	-0.11343192
55	0xbd8fced8	-0.07021874
56	0x3d946cc6	0.072473094
57	0x3c093990	0.00837554
58	0x3dba9db6	0.09112112
59	0x3c07623a	0.008263165
60	0xbdc136a2	-0.094342485
61	0xbd329ba0	-0.043605447
62	0xbde340c6	-0.11096339
63	0xbd00e6a1	-0.031469945
64	0xbd263a88	-0.040583163
65	0x3d8474f9	0.06467623
66	0x3d246004	0.04013063
67	0xbd186400	-0.037204742
68	0x3e49f222	0.19721273
69	0xbdea090e	-0.11427508
70	0xbcaf0c70	-0.021368235
71	0x3d06e608	0.03293422
72	0x3e2b669d	0.16738363
73	0x3e1b24cf	0.1515076
74	0xbe8b3088	-0.27185464
75	0xbdb2be46	-0.08727698
76	0x3db2b688	0.08726221
77	0xbd44e8a8	-0.04807344
78	0x3dea1576	0.114298746
79	0xbdc714ec	-0.097207874
80	0xbdeed00c	-0.116607755
81	0xbe8efb0f	-0.27925918
82	0xbc1e9f80	-0.009681582
83	0xbd9115a0	-0.07084203
84	0xbbbd1fa0	-0.0057715923
85	0x3e0750b3	0.13214378
86	0xbd9fc0c8	-0.07800442
87	0xbc162d76	-0.009166112
88	0xbd8a0a78	-0.06740278
89	0xbdfccb52	-0.12343468
90	0x3d074a34	0.03302975
91	0xbc8c9d98	-0.01716499
92	0x3da1ca18	0.078998744
93	0xbd6cb2c2	-0.057787664
94	0x3cdf1258	0.027230427
95	0xbc97ee68	-0.018546298
96	0xbde3c622	-0.11121775
97	0xbd183b9c	-0.037166223
98	0xbba82051	-0.0051308055
99	0x3dd81f88	0.10552889
100	0xbddb105e	-0.10696481
101	0xbdc2d438	-0.09513134
102	0x3cbecd18	0.023291156
103	0x3d4f12d0	0.05055505
104	0xbdbcb725	-0.092146195
105	0xbd107b0a	-0.03527359
106	0x3dd6809e	0.104737505
107	0xbde39874	-0.111130625
108	0x3e50e1ab	0.20398585
109	0x3e0a20d9	0.13489093
110	0x3d928674	0.07154551
111	0x3dc1b7e4	0.094589025
112	0xbcb3d0a1	-0.021950068
113	0xbdb1a5a4	-0.086741716
114	0xbd386a6c	-0.045023367
115	0x3a4a4400	0.0007715821
116	0xbce08b50	-0.02741018
117	0x3d8002e0	0.06250548
118	0x3d99e451	0.07514251
119	0x3d19443e	0.037418596
120	0x3dee02f2	0.116216555
121	0xbce6e428	-0.028184965
122	0x3d6753d8	0.056476444
123	0x3e382668	0.17983401
124	0xbcb7eea1	-0.022452654
125	0x3d22a40d	0.039707232
126	0x3da3936e	0.07987104
127	0x3de474f0	0.111551166
128	0xbcdc9328	-0.026925638
129	0x3d4b711c	0.049668416
130	0x3d3987fc	0.0452957
131	0xbd89d262	-0.067295805
132	0x3dc0b7e2	0.09410073
133	0x3ddce736	0.107862875
134	0xbdc8f62a	-0.09812577
135	0xbdd65fc8	-0.104674876
136	0x3d5ce2bc	0.05392717
137	0xbd8e85ea	-0.06959136
138	0xbb488b40	-0.0030600578
139	0xbdad4782	-0.08460905
140	0x3ddc8698	0.10767859
141	0x3dd0c7a8	0.101943314
142	0xbbf87e60	-0.0075834244
143	0x3d3ca6b4	0.046057418
144	0x3d32f7d8	0.043693393
145	0xbdd84fea	-0.105621174
146	0xbd2aee34	-0.041731074
147	0x3d744f20	0.059645772
148	0x3d391fac	0.04519622
149	0x3d35a52c	0.044346973
150	0x3dd79192	0.10525812
151	0xbdeb97a6	-0.11503534
152	0x3db1acd6	0.08675544
153	0x3cb60c58	0.022222683
154	0xbd05a2a4	-0.03262581
155	0x3cdec998	0.027195737
156	0xbde7ab88	-0.11312014
157	0xbd9d73fc	-0.07688138
158	0x3d1a05bc	0.037603125
159	0xbd324b18	-0.043528646
160	0xbd88ad4c	-0.06673679
161	0x3d8c4d06	0.068506286
162	0xbd8de0fe	-0.069276795
163	0xbda14c02	-0.078758255
164	0x3db506ae	0.08839165
165	0xbcba9100	-0.02277422
166	0xbd81fb5e	-0.063467726
167	0xbdbb6170	-0.09149444
168	0x3db6b03e	0.08920334
169	0x3c0be2c0	0.008537948
170	0x3b87ef80	0.0041484237
171	0x3c8afaf0	0.01696536
172	0x3d9e62d0	0.07733691
173	0x3da152d4	0.07877126
174	0x3da2dfb4	0.07952824
175	0xbdc97eb6	-0.09838621
176	0xbc9d0a90	-0.019170076
177	0xbd4b3c94	-0.04961832
178	0x3db8df22	0.09026934
179	0xbdc709d6	-0.09718673
180	0x3de4d15e	0.11172746
181	0xbc862b48	-0.01637806
182	0xbde2da58	-0.11076802
183	0xbd6abdec	-0.05731003
184	0x3de69928	0.11259681
185	0x3c7b1f80	0.015327334
186	0x3d578ab4	0.052622512
187	0xbd776f7c	-0.060409054
188	0xbd97438c	-0.073859304
189	0xbddeec46	-0.10884909
190	0xbd9baaf2	-0.076009646
191	0xbccebd58	-0.02523677
192	0x3ded6070	0.115906596
193	0xbd78bcb8	-0.06072685
194	0xbc9e3410	-0.019311935
195	0xbdd0581a	-0.10173054
196	0xbd6dae64	-0.05802764
197	0xbd95a318	-0.07306498
198	0x3ddb2796	0.1070091
199	0xbdee75b2	-0.11643542
200	0x3cb1c170	0.021698684
201	0x3cb7bef0	0.022429913
202	0xbd2a6d68	-0.041608244
203	0x3d803aac	0.06261191
204	0xbd93d722	-0.07218768
205	0xbd3a147c	-0.04542969
206	0xbd13e3b8	-0.03610584
207	0x3bab5e40	0.0052297413
208	0x3d876450	0.0661093
209	0xbd5bf6cc	-0.05370216
210	0x3dcd2148	0.100161135
211	0x3dbf9158	0.09353894
212	0xbd08bcb0	-0.03338307
213	0x3dc585b4	0.096446425
214	0x3d8f88d4	0.0700852
215	0xbdbec320	-0.09314561
216	0xbcc41278	-0.023934588
217	0xbb518b40	-0.0031973869
218	0xbd6167b8	-0.055030555
219	0x3dae1560	0.08500171
220	0xbcb65228	-0.022255972
221	0xbca7da68	-0.020489886
222	0xbdd7da66	-0.10539703
223	0xbd2a5680	-0.0415864
224	0x3d646f00	0.05576992
225	0xbdc847c2	-0.09779312
226	0xbdb83418	-0.08994311
227	0x3db1c26c	0.08679661
228	0x3d8ef2b2	0.06979884
229	0x3cfe49e8	0.0310411
230	0xbd8f15cc	-0.06986579
231	0xbd4f7600	-0.050649643
232	0x3dd5f94a	0.10447939
233	0x3d8e14ce	0.06937562
234	0x3df2c778	0.11854452
235	0x3df1e3aa	0.118110016
236	0xbdd93558	-0.10605878
237	0xbdabe87a	-0.08393951
238	0xbcdb3f28	-0.026763514
239	0x3de2e3e6	0.110786244
240	0xbdbd5f70	-0.09246719
241	0xbdd37e8e	-0.10326873
242	0x3de566b2	0.11201228
243	0xbc7a1250	-0.015263155
244	0xbc4ea380	-0.012612224
245	0x3cc53420	0.024072707
246	0x3d087a38	0.033319682
247	0x3b521200	0.0032054186
248	0x3ca04348	0.019563332
249	0x3d54a3f0	0.051914155
250	0xbd8a06a0	-0.06739545
251	0x3d900ffe	0.070343
252	0x3ddbfe16	0.107418224
253	0xbc1fc660	-0.009751886
254	0xbd1858e4	-0.037194148
255	0x3c915198	0.017739102

module.encoder.bias_ih_l0 f4 [256]
0	0xbdbbc017	-0.091674976
1	0x3e1cab15	0.15299638
2	0x3d95d858	0.07316655
3	0xbcad2f80	-0.021140814
4	0x3d8c74bc	0.06858203
5	0xbdaceba2	-0.08443381
6	0xbd2940b5	-0.041321475
7	0x3d8faf6c	0.07015881
8	0xbdb74c75	-0.0895013
9	0xbd525d8d	-0.05135875
10	0xbe35b42f	-0.17744516
11	0xbdeda232	-0.11603202
12	0xbe103138	-0.14081275
13	0x3d858c1c	0.06520864
14	0xbc3a0070	-0.011352643
15	0x39db9800	0.00041884184
16	0xbdd9f7de	-0.1064298
17	0x3dc2618c	0.09491262
18	0x3dc22115	0.09478966
19	0x3d605494	0.05476816
20	0xbdf032d2	-0.11728443
21	0xbcf99d28	-0.030470446
22	0xbdcb72de	-0.099340186
23	0xbda01eb4	-0.07818356
24	0xbdcb5476	-0.09928219
25	0xbd816318	-0.06317729
26	0xbcbde4a0	-0.023180306
27	0x3b048bc0	0.00202249
28	0x3d7549a8	0.059884697
29	0x3d3a5fc0	0.04550147
30	0x3d3eb6d6	0.046561085
31	0xbd5ff998	-0.05468139
32	0xbd57deb7	-0.05270263
33	0x3d9f0ec4	0.07766488
34	0x3e17ac0f	0.14811729
35	0x3da31595	0.07963101
36	0x3d82402e	0.063598976
37	0xbddd7423	-0.10813167
38	0x3db5128f	0.088414304
39	0xbd47b97c	-0.048760876
40	0x3e09b683	0.13448529
41	0x3d8eef90	0.06979287
42	0x3dec7438	0.115456045
43	0x3d8c4366	0.06848793
44	0xbc1d576c	-0.0096033625
45	0xbcf6e1d3	-0.030136978
46	0x3decc954	0.11561838
47	0x3e02b78f	0.12765335
48	0xbd7bd4c7	-0.061482217
49	0xbdb8de9a	-0.09026833
50	0x3c934658	0.017977878
51	0xbddbc8c4	-0.107316524
52	0xbde569a6	-0.112017915
53	0x3dd39666	0.103314206
54	0xbd5eb980	-0.054376125
55	0x3eb0c482	0.34524924
56	0xbd525de8	-0.051359087
57	0xbd9331e5	-0.07187251
58	0xbd6554e4	-0.05598916
59	0x3da2778a	0.079329565
60	0xbd112e05	-0.03544428
61	0xbd709773	-0.058738183
62	0x3dd271e8	0.10275632
63	0x3dbdb8a0	0.0926373
64	0x3cf8bd28	0.030363634
65	0x3afc3480	0.001924172
66	0x3dce064e	0.10059796
67	0xbda33770	-0.07969558
68	0x3db438c6	0.08799891
69	0x3c2da2a0	0.010597855
70	0x3d96a88a	0.07356365
71	0x3debcf28	0.11514121
72	0x3d41dc65	0.047329325
73	0xbdd096c4	-0.10185006
74	0x3d168421	0.0367471
75	0xbdf28320	-0.11841416
76	0xbcb4548c	-0.022012971
77	0xbcd02060	-0.025406063
78	0x3d4afaa8	0.04955545
79	0xbdb3d65a	-0.08781119
80	0xbd11a95c	-0.035561904
81	0xbd11c6da	-0.03559003
82	0x3dcd9496	0.10038106
83	0x3d7f57e0	0.062339664
84	0x3c466300	0.012108564
85	0x3dedfb61	0.11620212
86	0x3d6b14d4	0.05739291
87	0x3e051313	0.12995557
88	0x3d85b571	0.06528748
89	0xbd78b4cc	-0.060719296
90	0xbd9defc8	-0.0771175
91	0x3bf45360	0.007456228
92	0x3dbb82bc	0.09155795
93	0x3dd254f2	0.10270108
94	0xbc3bff56	-0.011474451
95	0x3ae5c869	0.001753104
96	0xbdbf4ff8	-0.09341425
97	0x3df7f610	0.121074796
98	0x3d93bc80	0.07213688
99	0x3db2581f	0.08708214
100	0x3d2a47b0	0.041572273
101	0x3dc97de8	0.09838468
102	0x3c2692c1	0.010166825
103	0xbbfff3ce	-0.007811046
104	0xbda8340f	-0.082130544
105	0x3cf70ac0	0.030156493
106	0x3dcbb2ac	0.09946188
107	0xbd714ddc	-0.058912143
108	0x3c074284	0.008255605
109	0xbdca4ec5	-0.09878305
110	0xbdcc0ea2	-0.099637285
111	0xba93c480	-0.0011273772
112	0x3deb0617	0.11475771
113	0xbd67be04	-0.056577697
114	0xbd08dea0	-0.033415437
115	0xbdc15d5a	-0.094416335
116	0xbda8f1ea	-0.082492664
117	0x3c97d938	0.018536195
118	0xbe053165	-0.13007124
119	0xbce45210	-0.027871162
120	0x3dc02a2c	0.09383044
121	0x3dd7828f	0.10522949
122	0x3cdc14a8	0.026865318
123	0x3d389799	0.04506645
124	0xbd5ec60e	-0.0543881
125	0x3e355357	0.17707573
126	0xbcdc1a10	-0.026867896
127	0xbd8c9bd4	-0.06865659
128	0xbca11458	-0.019663021
129	0x3d8cb0f0	0.06869686
130	0x3cc3a1d8	0.023880884
131	0xbde6ae16	-0.11263673
132	0xbdbae4a1	-0.09125639
133	0xbdd14bc4	-0.10219529
134	0xbdf6e2d7	-0.12054985
135	0xbd8208aa	-0.06349309
136	0x3d929ac1	0.07158423
137	0x3cbf8a18	0.023381278
138	0x3d36b9b3	0.04461069
139	0x3db1562e	0.086590156
140	0xbcc3378a	-0.023830194
141	0xbdcd485a	-0.100235656
142	0xbd28773c	-0.041129336
143	0xbd5cdef8	-0.053923577
144	0xbda9d67e	-0.08292864
145	0xbcd56e41	-0.02605355
146	0xbddf2b92	-0.10896982
147	0xbd534adc	-0.051585063
148	0xbc229e90	-0.0099255
149	0x3bf73900	0.0075446367
150	0x3de4cb96	0.111716434
151	0xbd9e4e5e	-0.07729791
152	0xbd3fce27	-0.04682746
153	0x3b35f800	0.0027766228
154	0xbd4ff234	-0.050768092
155	0x3d49619c	0.049165353
156	0x3db1e9f2	0.086872
157	0x3d0c3f5f	0.034240123
158	0xbd946f2c	-0.07247767
159	0xbd1625c4	-0.03665711
160	0x3d9e7536	0.077372
161	0xbd7c40ec	-0.06158535
162	0x3db37cd6	0.08764045
163	0xbc898b63	-0.016790098
164	0xbdb9ad12	-0.09066214
165	0xbd401f7b	-0.046905022
166	0xba9cac00	-0.0011953115
167	0x3d6561b8	0.056001395
168	0x3c089f66	0.008338785
169	0xbd9cbbce	-0.076530084
170	0x3d828220	0.063724756
171	0xbd021fb8	-0.03176853
172	0x3db41053	0.08792176
173	0x3dc4377f	0.095808975
174	0x3d17772c	0.036978886
175	0x3df71762	0.12065007
176	0xbd101c50	-0.03518325
177	0xbddcb146	-0.10776
178	0xbd5bbc4c	-0.05364637
179	0xbd90be9e	-0.07067607
180	0xbd76abe0	-0.060222507
181	0x3d8f99de	0.0701177
182	0x3c852d8f	0.016257076
183	0x3bad18ff	0.005282521
184	0xbd8a9294	-0.06766239
185	0x3df4b569	0.11948664
186	0xbcd6a8a0	-0.026203454
187	0xbe04c523	-0.12965827
188	0x3da9407a	0.08264251
189	0x3d80df30	0.0629257
190	0x3dae6d20	0.08516908
191	0xbc8e1c45	-0.017347464
192	0xbd6eed70	-0.058331907
193	0xbd7650f3	-0.060135793
194	0x3d5817f8	0.052757233
195	0x3ce789d8	0.028263971
196	0x3db7f469	0.089821644
197	0xbd89c490	-0.067269444
198	0x3dc8e084	0.09808448
199	0xbce107d8	-0.02746956
200	0xbbbfc680	-0.0058525205
201	0x3d89a06a	0.0672005
202	0x3d040890	0.03223473
203	0xbdfd607a	-0.12371917
204	0xbdc54a8d	-0.0963336
205	0x3de89e7e	0.11358355
206	0x3c10e3e0	0.008843392
207	0xbcbd1088	-0.023079172
208	0xbc2d9ca0	-0.010596424
209	0xbe473935	-0.19455417
210	0x3d48144c	0.04884748
211	0x3ddbc38e	0.107306585
212	0xbdf381f6	-0.118900225
213	0xbc81ae2d	-0.015830124
214	0xbda5026c	-0.080571026
215	0x3e342d16	0.17595324
216	0x3d4df032	0.050277896
217	0x3bedab60	0.0072530955
218	0xbd212a70	-0.039347112
219	0xbdfe1ea4	-0.12408188
220	0xbd8a1670	-0.06742561
221	0x3cf1e320	0.029527247
222	0xbd99f7b1	-0.075179465
223	0x3dff8413	0.12476363
224	0x3ddecab9	0.1087851
225	0x3dffd4e2	0.12491776
226	0xbd32ba14	-0.04363449
227	0x3d9d1931	0.076708205
228	0x3da07a22	0.07835795
229	0xbc90d3d1	-0.017679127
230	0xbdfd9f13	-0.123838566
231	0x3e08fbae	0.13377258
232	0x3d305b49	0.043055806
233	0xbe63813a	-0.22217265
234	0x3a3fea00	0.00073209405
235	0x3da21880	0.07914829
236	0x3dfa0fdf	0.122100584
237	0x3c70a8d0	0.014688686
238	0x3deef238	0.11667293
239	0x3d702778	0.05863139
240	0x3d9ca46b	0.07648548
241	0x3dadc58e	0.08484946
242	0x3df243e2	0.11829354
243	0xbdd388ee	-0.10328852
244	0xbc235d90	-0.0099710375
245	0x3c86d848	0.016460553
246	0x3da8ebfa	0.08248134
247	0xbd3c76b2	-0.046011634
248	0xbd607340	-0.05479741
249	0xbc526f10	-0.012843862
250	0x3da49932	0.08037032
251	0xbdc3232c	-0.09528193
252	0x3df4f23a	0.119602636
253	0xbad1dfa3	-0.0016012084
254	0x3dc43944	0.09581235
255	0x3d4ab745	0.049491186

module.encoder.bias_hh_l0 f4 [256]
0	0xbd9e0c09	-0.07717139
1	0x3e28c69c	0.16482013
2	0xbc1264e0	-0.008935183
3	0x3d025fac	0.03182952
4	0xbce316e1	-0.02772087
5	0xbc452a80	-0.012034059
6	0xbdd6ec75	-0.10494319
7	0x3def9078	0.11697477
8	0xbbc08988	-0.00587577
9	0xbdd79056	-0.10525577
10	0xbde2a205	-0.11066059
11	0xbdcc7a4e	-0.09984265
12	0x3d8b5ae4	0.068044454
13	0xbd2daa80	-0.04239893
14	0xbc3d3390	-0.011547938
15	0xbd98d492	-0.074624196
16	0xbcc69ea0	-0.02424556
17	0xbdd92f74	-0.10604754
18	0x3d27bca3	0.040951382
19	0xbbed3ad4	-0.007239679
20	0xbccb0740	-0.02478373
21	0xbde70f4a	-0.11282213
22	0xbbd80e60	-0.0065935105
23	0xbc81ae3f	-0.015830157
24	0x3ce02be5	0.02736468
25	0x3cd7c680	0.02633977
26	0x3dfa8cea	0.122339085
27	0xbdf05304	-0.11734584
28	0x3c13d0a0	0.009021908
29	0xbd87ca7a	-0.06630416
30	0xbd28827b	-0.04114006
31	0x3db04c70	0.08608329
32	0x3e1ef3dc	0.15522712
33	0xbda69630	-0.08134115
34	0x3e0c720b	0.13715379
35	0x3dc0af15	0.09408394
36	0x3d972ace	0.07381211
37	0x3d137282	0.035997875
38	0x3d0e37f7	0.03472134
39	0xbdc3ef6e	-0.09567152
40	0x3ddc55d2	0.107585564
41	0x3d4ed724	0.050498143
42	0x3d48c92e	0.049019985
43	0xbd762078	-0.06008956
44	0xbd528dfd	-0.05140494
45	0x3d79d378	0.060992688
46	0x3c975f50	0.018478066
47	0x3dd46785	0.10371307
48	0xbcfa6218	-0.030564353
49	0xbb42ae80	-0.002970606
50	0x3d53ac7c	0.051678166
51	0xbde22698	-0.110425174
52	0x3cc39ce8	0.02387853
53	0x3bdfcb00	0.0068296194
54	0x3d410494	0.047123507
55	0x3e8991db	0.2686909
56	0x3d9c7c34	0.07640877
57	0x3daf1d1d	0.08550475
58	0x3dbf0094	0.09326282
59	0x3c10bbf0	0.00883387
60	0x3db0ae32	0.08626975
61	0xbd02505f	-0.03181493
62	0xbcbbc480	-0.022920847
63	0x3de522fe	0.11188315
64	0xbc9875d0	-0.018610865
65	0xbd8a6d1a	-0.06759091
66	0x3d0a64f8	0.033787698
67	0x3dff5146	0.124666736
68	0x3cf9906d	0.030464375
69	0x3ddd02ac	0.10791525
70	0x3d9b8e3c	0.075954884
71	0x3c2c9930	0.01053457
72	0x3db7e624	0.08979443
73	0xbd97ad8a	-0.07406147
74	0x3dc35634	0.09537926
75	0x3d8f01b4	0.06982747
76	0xbc7c8d39	-0.0154145295
77	0x3d6f664c	0.058447167
78	0xbd995f3c	-0.07488868
79	0xbdf2d68a	-0.11857326
80	0x3d89cfbe	0.06729077
81	0x3daef13e	0.08542107
82	0xbd8a2450	-0.06745207
83	0xbdfd0164	-0.12353781
84	0x3dfbf4d6	0.12302558
85	0xbbef7dee	-0.007308713
86	0x3dab12a4	0.08353165
87	0xba4c088b	-0.00077832554
88	0x3cc79aa2	0.024365727
89	0x3dcda218	0.100406826
90	0x3ce44008	0.027862564
91	0x3db94398	0.090460956
92	0x3c650d70	0.0139802545
93	0xbc8cdca6	-0.017195057
94	0xbdab4ed0	-0.08364642
95	0x3da599da	0.080859855
96	0x3db427b6	0.08796637
97	0xbd5d8350	-0.054080307
98	0x3cfc4774	0.03079579
99	0xbdf91421	-0.121620424
100	0x3c6806f0	0.01416181
101	0x3b1d15aa	0.0023969212
102	0x3dc7bfbe	0.09753369
103	0xbd3d791a	-0.04625807
104	0xbce15e78	-0.027510867
105	0xbdf34ecc	-0.11880264
106	0xbc94b808	-0.01815416
107	0x3d8bf3a4	0.0683358
108	0xbd3b292d	-0.045693565
109	0xbd05a795	-0.03263052
110	0xbd9fe064	-0.07806471
111	0x3d135908	0.03597358
112	0x3e0785e2	0.13234666
113	0xbd5781cc	-0.05261402
114	0x3d44c8b4	0.048042968
115	0x3d07cc6c	0.033153936
116	0x3dfb5094	0.122712284
117	0xbdcf4122	-0.10119845
118	0xbbe9a419	-0.0071301577
119	0x3d92bea2	0.071652666
120	0x3ce56878	0.028003916
121	0xbc6c5f9a	-0.01442709
122	0x3da7a788	0.08186251
123	0x3de79d6d	0.113093235
124	0x3c79e7d0	0.015253022
125	0x3e456ce4	0.1927982
126	0xbbbb9880	-0.0057249665
127	0x3dec35e2	0.11533715
128	0x3c2c3930	0.010511681
129	0x3d2e143c	0.042499766
130	0x3d155348	0.036456376
131	0x3dc92472	0.098214045
132	0xbdbdabcb	-0.092612825
133	0xbc29b300	-0.010357618
134	0x3c800ef0	0.015632123
135	0x3d48f4bc	0.049061522
136	0xbd9a460e	-0.07532893
137	0x3dd66a60	0.10469508
138	0x3e140944	0.1445666
139	0x3cd51508	0.026011005
140	0x3b150c36	0.0022742874
141	0xbc7e2a00	-0.015512943
142	0xbd94f9f0	-0.07274234
143	0x3d34d540	0.044148684
144	0xbc733ca0	-0.014845997
145	0x3cf18cf4	0.029486157
146	0x3d291fb0	0.041289985
147	0xbccb2720	-0.02479893
148	0x3c987268	0.01860924
149	0xbd2b531c	-0.041827306
150	0xbd81af38	-0.063322484
151	0xbdce9754	-0.10087457
152	0x3def7415	0.11692063
153	0x3c9d6500	0.0192132
154	0xbda5a9b4	-0.08089009
155	0xbd08b6b8	-0.03337738
156	0xbd947bb0	-0.07250154
157	0xbcaead4e	-0.021322872
158	0x3cdec2d0	0.027192503
159	0x3b909c80	0.0044131875
160	0xbd76159c	-0.060079202
161	0x3d402abc	0.046915755
162	0xbd2f4094	-0.042786196
163	0xbd9ebf04	-0.07751277
164	0xbd3d4750	-0.046210587
165	0xbdd034b6	-0.10166304
166	0x3ddcb796	0.10777204
167	0x3d79626c	0.060884878
168	0xbe06459c	-0.13112491
169	0xbd50f3fc	-0.05101393
170	0xbd972352	-0.07379784
171	0x3da2ff88	0.07958895
172	0x3b9c2113	0.004764685
173	0xbd591350	-0.052996933
174	0xbd89f3ba	-0.0673594
175	0x3d492568	0.04910794
176	0x3dc18698	0.094495
177	0xbd8c3db0	-0.068477035
178	0x3d35f3b8	0.04442188
179	0x3dd0bc94	0.101922184
180	0x3d1f3c04	0.038875595
181	0xbd204f24	-0.039137974
182	0x3da40226	0.08008222
183	0x3dfd780d	0.123764135
184	0x3df17cf6	0.117914125
185	0x3c4a5ef1	0.012351737
186	0x3da73adc	0.081655234
187	0xbdf60f1f	-0.12014603
188	0xbdc9d614	-0.09855285
189	0x3d938c92	0.07204546
190	0x3dd1ce4e	0.102444276
191	0x3d41c096	0.047302805
192	0x3d90e08e	0.070740804
193	0xbe2cf6b3	-0.16890983
194	0xbd55a06c	-0.052154943
195	0x3d00a2b0	0.03140515
196	0x3c6843f6	0.014176359
197	0x3df24d02	0.11831094
198	0xbd992028	-0.074768364
199	0x3dd03a84	0.10167411
200	0xbd3c1ea0	-0.045927644
201	0x3d5d68bc	0.05405496
202	0xbda0830e	-0.07837497
203	0xbd0a76c0	-0.033804655
204	0x3d9bbcff	0.076044075
205	0x3d9bd754	0.0760943
206	0x3cc96fe0	0.024589479
207	0x3ae59980	0.001751706
208	0x3dc979c0	0.09837675
209	0xbe27b37b	-0.1637706
210	0xbdea499a	-0.1143982
211	0xbdd8cbf4	-0.10585776
212	0x3dbb025a	0.09131308
213	0xbc666896	-0.014063021
214	0xbd33c358	-0.043887466
215	0x3df69f76	0.120421335
216	0x3e7148fe	0.23563
217	0x3d3edbdc	0.046596393
218	0xbb80d380	-0.0039314628
219	0x3dfaedec	0.12252411
220	0xbd9cbc32	-0.07653083
221	0xbda9e683	-0.0829592
222	0xbe811668	-0.25212407
223	0x3d1d22d3	0.03836329
224	0x3d8c2e0e	0.06844722
225	0x3c9292b8	0.017892227
226	0xbd9b350d	-0.07578478
227	0x3df22644	0.11823705
228	0x3d9e8cf4	0.077417284
229	0x3de26a97	0.11055487
230	0xbe0d36d5	-0.13790448
231	0x3e4fa2e6	0.20276985
232	0xbcafc993	-0.021458423
233	0xbed94e04	-0.42442334
234	0xbd8b3a18	-0.0679819
235	0x3d8ef452	0.06980194
236	0xbd8fd7ef	-0.07023608
237	0xbc8d8b58	-0.017278358
238	0xbcf220dd	-0.029556686
239	0x3b87b520	0.004141465
240	0x3d0c1009	0.03419498
241	0x3cc168f9	0.023609625
242	0x3deff266	0.11716156
243	0x3d2c88e4	0.042122737
244	0xbd900404	-0.07032016
245	0xbdbba2f0	-0.09161937
246	0xbbff38ba	-0.0077887448
247	0xbd51c0c6	-0.051209234
248	0x3d765b64	0.06014575
249	0xbd19c8b4	-0.03754492
250	0xbc56ce10	-0.013110653
251	0xbda5301e	-0.08065818
252	0x3d64fac8	0.055903226
253	0x3dae1690	0.08500397
254	0xbd587794	-0.052848414
255	0xbde874eb	-0.11350425

module.fc.weight f4 [1, 64]
0	0xbd712634	-0.058874324
1	0xbde65a56	-0.11247699
2	0x3c2cce80	0.01054728
3	0x3cfe3420	0.031030715
4	0x3d990b20	0.07472825
5	0x3de67076	0.11251919
6	0xbbd68d20	-0.006547585
7	0x3dd4aa28	0.10384017
8	0x3df83d74	0.12121096
9	0xbd9ae2ec	-0.07562813
10	0xbdc02e7c	-0.09383866
11	0x3bd31540	0.006441742
12	0x3d8297f8	0.06376642
13	0x3d717c7c	0.05895661
14	0xbdc11088	-0.09426981
15	0x3d738fdc	0.059463367
16	0x3d288198	0.041139215
17	0xba85dd00	-0.0010212958
18	0x3dac7216	0.08420198
19	0x3d6eba64	0.058283225
20	0xbc235960	-0.009970039
21	0x3de8111c	0.11331388
22	0xbd813834	-0.06309548
23	0x3de7cbd6	0.113181755
24	0x3d735ba8	0.059413582
25	0xbd338948	-0.043832093
26	0x38008000	3.0636787e-05
27	0x3be44c00	0.0069670677
28	0xbdb6e9fa	-0.08931346
29	0xbdeedd4e	-0.11663304
30	0x3d25ec30	0.04050845
31	0x3d7854e0	0.060627818
32	0xbd821d62	-0.063532606
33	0x3d58c2d0	0.052920163
34	0x3de1d802	0.11027528
35	0x3d876a70	0.06612098
36	0xbce2a780	-0.02766776
37	0xbdc2c09a	-0.09509392
38	0x3dd201d2	0.102542534
39	0xbd807226	-0.06271772
40	0xbd393828	-0.04521957
41	0xbcc0c1a0	-0.023529828
42	0x3d436a18	0.0477086
43	0xbc6cd700	-0.014455557
44	0xbdad6b20	-0.08467698
45	0x3d85cda8	0.065333664
46	0x3df2c928	0.11854774
47	0xbde7aaa2	-0.113118425
48	0xbdeba916	-0.1150686
49	0xbdd10d80	-0.10207653
50	0x3d040bb8	0.03223774
51	0x3d62ac68	0.0553402
52	0xbda7cc16	-0.08193223
53	0x3dcbdb60	0.09953952
54	0xbde7c0da	-0.113160804
55	0xbc419120	-0.011814386
56	0xbd707bac	-0.058711693
57	0x3c7f1680	0.015569329
58	0x3cf48928	0.029850557
59	0x3d503b54	0.05083783
60	0x3dccc71c	0.099989146
61	0xbdbf900c	-0.09353647
62	0xbd473a40	-0.048639536
63	0x3cd3f6c0	0.025874496
