PSI-Intent-Prediction/ckpts/ped_intent/PSI2.0/lstm_int_bbox/20241128165914/latest.pth (torch, 78787 bytes, 7 tensors)

module.intent_predictor.encoder.weight_ih_l0 f4 [256, 4]
000000 90 0b d0 bb 43 40 b4 3c 93 5f 92 ba 46 24 55 3d
       -0.0063490346 0.022003299 -0.0011167399 0.052036546
000010 82 dc f3 bd 2a f7 e2 bd c8 f9 73 bd 70 3c 89 bd
       -0.11907293 -0.11082299 -0.05956438 -0.06700981
000020 c8 dc dd bd 68 39 a3 bc b8 3f cc bc fc b1 e6 bd
       -0.10833126 -0.019924834 -0.024932727 -0.112644166
000030 e8 28 b5 bd 87 28 28 bc 2e 22 b9 bd f8 45 54 bd
       -0.08845693 -0.010263569 -0.090397224 -0.05182454
000040 32 1d 9d bd 00 d6 ac 3b 00 50 f7 3b 7c f1 b2 bd
       -0.07671584 0.005274534 0.0075473785 -0.08737466
000050 04 60 00 bd 54 07 3a bd 00 48 a5 b9 3c 3e bf bd
       -0.031341568 -0.045417145 -0.00031524897 -0.09338042
000060 bd c7 a2 bd 3f 38 bf 3d eb 18 66 3d aa f1 a8 bc
       -0.07948253 0.093369 0.056176107 -0.020623047
000070 9c 82 08 3d 8c 95 81 bd 92 40 e8 3d f2 76 f6 3d
       0.033327684 -0.06327352 0.11340441 0.12034406
000080 69 c3 86 3d 70 2f b6 3d af f1 ed bd 9a 99 e2 bd
       0.0658024 0.08895767 -0.11618363 -0.110644534
000090 14 22 85 bd 80 84 db 3a 00 36 49 bc ae c8 b4 3d
       -0.065006405 0.0016747862 -0.012280941 0.08827339
0000a0 50 61 50 bc 90 4a 6e bc 50 60 e5 bd 24 a7 b6 3d
       -0.012718514 -0.014544144 -0.11200011 0.08918598
0000b0 59 1c e9 3d e6 0e 83 bd e6 86 c3 3d 88 0a 8f 3d
       0.1138236 -0.06399326 0.09547214 0.069844306
0000c0 e7 aa 92 bd e3 09 a3 3d 01 65 46 3d f7 77 f0 bd
       -0.07161503 0.0796087 0.04843617 -0.117416315
0000d0 4b 8c ec 3d 6c 0d 91 bd d3 8c c8 3d 01 f1 c2 bd
       0.11550196 -0.07082638 0.09792485 -0.09518624
0000e0 da 3c 94 3d a6 14 0f 3e 31 8a 00 be cd 98 49 3c
       0.07238169 0.1397272 -0.12552716 0.012304497
0000f0 a8 31 e0 3c 84 5e 38 3d 0c 9a 09 3d 46 6d e1 3d
       0.027367428 0.045012012 0.033594176 0.110071704
000100 fc 83 a7 bd ec fe 23 bd 5e 6f a8 bd c2 2b f7 bd
       -0.08179471 -0.040038034 -0.082243666 -0.12068893
000110 ee 15 86 bd b9 66 8e 3d a5 1e f9 3d 91 6a 00 bd
       -0.065471515 0.069531865 0.12164048 -0.03135163
000120 86 c2 93 bd 80 99 5a bb 10 e0 2b bd 28 b4 3c bd
       -0.07214837 -0.0033355653 -0.04196173 -0.046070248
000130 f8 80 b3 bd 10 60 3e 3d bc 6b 3a 3d f4 04 e9 bd
       -0.08764833 0.04647833 0.0455129 -0.11377898
000140 08 90 66 3d cc ab f1 3d 80 d1 9e bc bc 44 36 3d
       0.056289703 0.11800346 -0.019387007 0.044499144
000150 5c 0c 02 bd 5e 0f 94 3d f0 d9 f5 bd 54 23 eb bd
       -0.031750068 0.072294936 -0.12004459 -0.11481348
000160 66 79 9d bc 46 92 f5 bd 1a 35 c0 3d 2b 49 f2 bc
       -0.019222926 -0.1199079 0.09385128 -0.029575905
000170 7a c2 fd bd 40 da c4 bb 0a 42 9a bd 42 82 d5 bd
       -0.12390609 -0.0060074627 -0.07532127 -0.10425235
000180 40 cb 62 bb 3c 84 22 3d 84 cb 30 bd 32 97 cb 3d
       -0.003460601 0.03967689 -0.043162838 0.099409476
000190 ec 57 a3 3d 34 0a fc 3d 00 38 21 b9 f4 cf 83 3d
       0.07975754 0.123066336 -0.00015375018 0.06436148
0001a0 8c 73 8a 3d f8 2c b7 3c 0c 7a ca bd e2 3e c3 bd
       0.0676032 0.02236031 -0.0988656 -0.09533478
0001b0 72 f2 dc bd f4 28 f8 bd 20 73 b9 bc 44 3d 1c 3d
       -0.1078843 -0.12117186 -0.022637904 0.038144365
0001c0 70 07 20 3c ac 9c 0e 3d c6 56 99 bd ba e5 eb bd
       0.009767398 0.034817383 -0.07487254 -0.11518426
0001d0 b8 0a 49 3d e8 52 56 bd 3a c8 8d 3d 2c 53 c5 3d
       0.049082488 -0.05232516 0.06922956 0.096350044
0001e0 6f 4e 59 3c 4d 26 b0 3d 30 27 53 3d 1a 83 43 bd
       0.013263329 0.08601055 0.051551044 -0.04773245
0001f0 9c d1 05 bd 40 57 f3 3c a0 9e 8b bc 70 4d bb 3c
       -0.032670602 0.02970469 -0.017043412 0.022864074
000200 45 03 c8 bd f3 76 6a bb dc 0b cc 3d 04 4f 01 be
       -0.097662486 -0.0035776466 0.099631995 -0.12627798
000210 a6 18 b1 3d ee 6d 9d 3d ee 14 ea bd d4 4c f9 bd
       0.086472794 0.07686983 -0.11429773 -0.12172857
000220 84 bd 54 bd e0 db 30 bd 30 9e 82 bc e8 48 7d bd
       -0.05193855 -0.04317844 -0.01594457 -0.061837107
000230 4e 58 89 bd e6 55 d4 bd 00 4f ce 3b cc e7 75 bd
       -0.06706296 -0.10367946 0.0062960386 -0.06003551
000240 ce ae fc bd c0 14 ad 3b a0 58 91 3c 1a d1 ec bd
       -0.12338029 0.0052820146 0.017742455 -0.115633205
000250 d6 6f 67 3d 16 3a 73 3d 08 0e ec bd a6 3e 26 bd
       0.05650314 0.059381567 -0.11526114 -0.04058709
000260 d1 5d a9 3b 31 2c bb 3d 6e c9 00 3e bf 59 92 bc
       0.0051686545 0.09139288 0.1257684 -0.01786506
000270 e6 8b c6 3d 9a 70 ff 3c 5e 9d 9d 3d 3f b0 33 bc
       0.09694652 0.031181622 0.07696031 -0.010967313
000280 f9 17 0a 3e 21 75 b5 bd 06 f1 22 3e 84 41 cb 39
       0.13485707 -0.08860231 0.15912256 0.0003876799
000290 5e 4f 17 bc 11 f2 09 3d 84 78 f9 3c 0f d5 9b 3c
       -0.009235231 0.03367812 0.030452974 0.019022493
0002a0 90 a8 34 3c ec 61 82 3d 28 f8 17 bd 00 29 82 bc
       0.011026517 0.06366333 -0.037101895 -0.015888691
0002b0 d0 fe 42 3c b4 03 ba 3d 94 a7 68 3d ac d8 ef bd
       0.011901572 0.090827376 0.05680044 -0.11711249
0002c0 ce 0d ff 3d 76 f2 97 bd e8 87 8a 3c 21 e8 10 bc
       0.12453805 -0.07419293 0.016910508 -0.008844406
0002d0 90 0d 7e 3d aa 1d b4 bd 94 2f 59 bd ae 75 e0 bd
       0.062024653 -0.087947205 -0.05302389 -0.109599456
0002e0 ba 3e a5 3d 18 aa f9 bc 28 cb 31 3d e2 e8 8e 3d
       0.08068605 -0.030476615 0.043406636 0.069780126
0002f0 6a 9f 8a bd ae 6b fd 3d ea af 84 bd 70 9b d0 3d
       -0.06768687 0.12374054 -0.064788654 0.10185897
000300 50 2a f2 3d cc 5c e4 3d 7c 3c 5e 3d ea e1 8b 3d
       0.11824477 0.11150512 0.0542569 0.06830199
000310 80 aa 78 3d 04 7d 9b 3d 6c 9a 25 bd 04 95 8d 3d
       0.060709476 0.07592204 -0.04043047 0.06913188
000320 65 a9 cc 3c cf e4 57 3d 58 04 ab 3d 41 2f 9f bc
       0.024983117 0.052708443 0.08350438 -0.019431712
000330 02 ee db bc 03 cf e7 bd de 3e 6e 3d fb 59 c7 3d
       -0.02684689 -0.11318781 0.058165424 0.09733959
000340 7c 89 78 3d 66 83 e7 bd 0a 45 82 bd f4 7b 49 bd
       0.06067799 -0.11304359 -0.063608244 -0.049190477
000350 44 cf 7c 3d a6 fe b6 bd a3 db c3 bd a9 17 99 bb
       0.0617211 -0.08935289 -0.09563377 -0.00467201
000360 48 14 c1 bd 80 f5 9c 3d 30 6f e1 bc e8 c2 b4 bd
       -0.094276965 0.07664013 -0.027518839 -0.08826238
000370 68 b0 8a 3d 30 eb 7b 3d f8 04 c9 bd 0c c0 f0 3d
       0.06771928 0.06150359 -0.09815401 0.1175538
000380 b4 aa 6e 3d e0 d1 83 bb b2 4b dc bd 66 74 e8 bd
       0.058268264 -0.004022822 -0.10756625 -0.11350326
000390 20 d0 ea bd f4 a3 1c 3d 78 52 9f bc 76 d2 fa bd
       -0.11465478 0.038242295 -0.019448504 -0.122471735
0003a0 c6 8e ef 3d 00 46 ce ba 04 1c 6c bd ce 6a 94 3d
       0.11697154 -0.0015737414 -0.057643905 0.07246934
0003b0 a6 14 99 3d 27 59 ec bd c3 e3 32 bd 36 f2 f6 bd
       0.074746415 -0.11540442 -0.04367424 -0.12057917
0003c0 58 b7 81 bc 61 b9 3a 3d 3c 08 89 3d 07 1d 14 3c
       -0.015834495 0.045586947 0.06691024 0.009040124
0003d0 28 0f 2d bd cf 1c 96 3d aa 7b 06 3e 8b 34 c8 bd
       -0.042250782 0.073297136 0.13133112 -0.09775647
0003e0 0f 37 41 3c 6e cf 83 3d 19 54 8f 3d fd 94 7a 3b
       0.011792912 0.064360484 0.06998462 0.0038235777
0003f0 3e e5 8b 3e 0c 0f 9a bd 3a 72 57 3e 18 71 2d 3d
       0.27323335 -0.07522401 0.21039668 0.042344183

module.intent_predictor.encoder.weight_hh_l0 f4 [256, 64]
000000 5a 7c a4 bd b8 5e c7 3c a6 3c b7 bd ea 38 c7 bd
       -0.08031531 0.024337158 -0.08947115 -0.09727652
000010 8c 8a 56 3d f0 96 92 bd 7d 17 fe 3d 3b 64 fe 3c
       0.052378222 -0.07157695 0.12406824 0.031053653
000020 00 7b 32 bc e8 01 d7 bc d8 f6 bc 3c 86 9c e5 3d
       -0.010893583 -0.026246026 0.023066923 0.11211495
000030 ac 7a 53 bd 26 48 42 3d a7 a5 60 3d 7c 13 10 3d
       -0.05163066 0.047432087 0.05484548 0.03517483
000040 7e f7 b9 bd ad 30 da 3c a0 0e ed bb a0 ec 37 3d
       -0.090804085 0.026634539 -0.0072344095 0.044903398
000050 b4 20 19 bd 38 77 8b bc 89 07 94 3c f8 2a 08 bd
       -0.037384704 -0.017024621 0.01807 -0.033244103
000060 84 f9 11 bd d0 ac 1e 3c 44 a5 3e bd a8 56 8a 3d
       -0.035638347 0.009684756 -0.04654433 0.067548096
000070 58 8d 89 bc 32 b6 89 3d 19 0f c0 3d 90 ae b8 bd
       -0.01679103 0.06724204 0.0937788 -0.0901767
000080 10 88 08 bd e0 06 b6 bb f0 12 1d 3d 40 bf c4 bc
       -0.033332884 -0.005555019 0.03834814 -0.024016976
000090 a0 e7 a7 3b 86 ef 93 3d 45 42 11 3c c4 00 df 3d
       0.0051240474 0.0722342 0.008865898 0.10888818
0000a0 c6 1b fc 3d 70 29 a1 3c 00 38 bd b8 de 1f df 3d
       0.12309985 0.01967308 -9.022653e-05 0.1089475
0000b0 fe 0c 9a 3d 50 01 13 bc a8 ec 2d 3d 98 6e 0c 3d
       0.07522009 -0.008972481 0.04246202 0.034285158
0000c0 42 2f d4 bd 0f e5 b6 bc 4b d2 ae bd 06 38 1c bd
       -0.10360576 -0.02232602 -0.08536204 -0.038139366
0000d0 c8 54 39 bd f0 fe 54 3d b0 b9 bb 3d 12 64 db 3d
       -0.04524687 0.05200094 0.091662765 0.10712446
0000e0 dc 17 81 bd 40 fc 02 bc de bd d0 3d 40 3d 81 bb
       -0.06303379 -0.007994711 0.10192464 -0.003944069
0000f0 61 12 c0 3d 33 3a 95 bd 08 84 8b bd 24 b2 10 bd
       0.093785055 -0.07286491 -0.06812292 -0.03532614
000100 04 c2 c9 3d 1e 29 e5 3d b8 ee 82 bd 50 b7 2d 3d
       0.09851459 0.11189483 -0.06393188 0.04241115
000110 78 2b a8 3c 68 1b 47 bd 88 cd e9 bc 38 05 9c bc
       0.02052854 -0.04861012 -0.028540388 -0.019045457
000120 4c 61 43 3d 5a 9d 8f bd 22 77 f1 3d c0 37 ac bc
       0.04770021 -0.07012434 0.11790301 -0.021022677
000130 8e 30 c2 3d 8c af 5c 3d 24 0e 53 3d dc c9 9c bd
       0.09481917 0.053878352 0.051527157 -0.07655689
000140 20 ae fb bd 0c e8 f1 bd c2 9b bf bd 10 5b 71 bc
       -0.12289071 -0.118118376 -0.0935588 -0.014731184
000150 e0 af 4b bc 20 b6 ee bb 18 ee 76 bd ac 91 cd 3d
       -0.012432069 -0.0072848946 -0.060285658 0.1003755
000160 38 6e 30 bd 60 8c f9 3b dc 36 f4 bd 30 b7 7a bc
       -0.043073863 0.007615611 -0.11924526 -0.015302464
000170 08 cc 32 bd 00 b4 01 bb 60 fb 90 bb 0c e2 b7 3d
       -0.04365161 -0.0019791126 -0.0044244975 0.08978662
000180 c8 c3 87 3d 50 09 a8 3c 9e cd ac bd 20 b4 ec bd
       0.06629139 0.020512253 -0.08437656 -0.115577936
000190 34 7f 9f 3d 1e 86 fb 3d dc 3b 8f bd e8 97 67 3d
       0.07787934 0.1228144 -0.06993839 0.056541353
0001a0 ea 5a fa bd a0 24 ca 3b a0 b6 c4 bb a8 e7 f8 3c
       -0.12224372 0.006168917 -0.006003216 0.0303839
0001b0 68 69 aa bc 68 4f 3a 3d 1c bf 5d 3d ca 90 bb 3d
       -0.020802215 0.045485884 0.054137334 0.09158476
0001c0 bc 80 82 bd e4 0c 56 bd 1c 6c 1b bd 76 e8 af 3d
       -0.063722104 -0.052258387 -0.037944898 0.0858926
0001d0 96 c1 ed bd a8 46 9a bc fa 7f de 3d 6a 0d c0 bd
       -0.11609189 -0.01883252 0.10864253 -0.093775585
0001e0 60 9e 70 3d 58 02 84 3d e8 3d ae 3c ba 3e da 3d
       0.05874479 0.064457595 0.021269754 0.106564954
0001f0 f2 84 d8 bd cc 88 d8 bd d0 63 0d bd 48 2e 17 3d
       -0.10572232 -0.10572967 -0.034519017 0.03690937
000200 04 de 2a 3d e0 55 e4 bc e8 9b bb 3c 3c f5 2b 3d
       0.041715637 -0.02787298 0.02290149 0.04198192
000210 c0 07 d4 bb 84 ab 04 bd 84 1e a6 bd 96 95 d1 3d
       -0.0064706504 -0.032390133 -0.08111289 0.102336094
000220 4e 2b b1 3d 14 84 74 bd c8 f7 b2 bd ca e8 da 3d
       0.08650838 -0.059696272 -0.08738667 0.10688932
000230 d8 b9 87 3d 60 10 b5 bb 94 02 5d 3d 46 3f d7 bd
       0.06627244 -0.0055256337 0.053957537 -0.10510115
000240 66 82 9f bd 9c 03 26 bd e4 0b 47 3d 9c af cc 3d
       -0.077885434 -0.040530786 0.048595324 0.09994432
000250 50 18 ee bc 4c 31 d9 3d 04 99 a5 3d 90 34 81 bc
       -0.029064327 0.10605106 0.08085826 -0.015772134
000260 c0 07 38 3d a0 b0 60 bc 04 f1 4e 3d 54 24 00 3d
       0.044929266 -0.013713986 0.05052282 0.031284645
000270 94 f8 fd 3d 20 74 7d 3c b4 f0 df bd 68 64 f8 3c
       0.12400928 0.015469581 -0.10934582 0.030321315
000280 d8 38 a4 3c 2c 0c 09 bd 00 1c 07 3c 6c da 80 bd
       0.020046636 -0.033458874 0.008246422 -0.06291661
000290 74 c9 c6 3d 68 9a a9 bc 40 09 c2 bd 6c 73 8d bd
       0.09706393 -0.02070351 -0.094744205 -0.069067806
0002a0 10 4d 84 3d 66 27 c7 bd 90 33 f3 bc e0 7b f5 bc
       0.06460011 -0.097243115 -0.029687673 -0.029966295
0002b0 b6 a5 ef bd 90 dd 5f 3d f0 30 5a 3c 3c e8 d1 3d
       -0.11701529 0.054654658 0.013317332 0.10249373
0002c0 c8 ef 60 bd c2 2b 9f bd 00 e3 b9 bd b0 ce 9e bd
       -0.054916173 -0.07772018 -0.090765 -0.07754266
0002d0 a4 f9 42 3d 40 45 18 3b 00 fa 82 3b cc 99 83 3d
       0.047601357 0.0023234636 0.0039970875 0.06425819
0002e0 a6 ea fe bd 10 1b 51 3c 90 f9 58 bd 74 be d8 bd
       -0.124470994 0.0127628 -0.052972376 -0.10583201
0002f0 22 e8 f5 3d 80 90 a0 bd f8 60 24 3d e8 f2 db 3d
       0.120071664 -0.07840061 0.04013154 0.1073969
000300 f6 54 a2 bd c0 34 53 bd 00 c5 31 3c 78 43 38 bd
       -0.07926361 -0.05156398 0.010850191 -0.04498622
000310 38 14 fb 3c 9c d1 59 bd c4 34 98 3d 70 39 70 bd
       0.03064929 -0.053178415 0.07431939 -0.058648527
000320 b0 6f e0 3c 5e 9a f2 3d f0 0a 96 3d c0 7c 49 3d
       0.027397007 0.118458495 0.07326305 0.049191236
000330 e0 42 82 bc c6 23 b2 3d 3c e6 4d 3d a4 13 5c 3d
       -0.01590103 0.086982295 0.050268397 0.05372967
000340 90 04 63 bd 60 09 41 3c c8 44 00 bd 44 81 b5 3d
       -0.055424273 0.01178202 -0.031315595 0.08862546
000350 3e 1c fe 3d dc 35 df bd 48 72 e1 bc 78 7e b5 3d
       0.124077305 -0.10898945 -0.027520314 0.088620126
000360 b8 39 3c bd f6 9e b8 bd 90 da 3b bd c6 24 e0 3d
       -0.045953482 -0.090146944 -0.045862734 0.10944514
000370 72 63 a1 bd 60 05 dc bd b0 5f 5f bd c8 f2 ab 3c
       -0.07880296 -0.10743213 -0.054534614 0.02098979
000380 d0 7f bf bd 40 ac 24 3c ac f9 29 3d 80 73 5e 3c
       -0.0935055 0.010050833 0.04149787 0.013577342
000390 c0 5c 88 3d 32 aa f1 bd 24 ae d1 bd 98 75 05 bd
       0.06658316 -0.1180004 -0.10238293 -0.03258285
0003a0 80 05 3c bc ea 53 dc 3d 5e 2f df 3d 04 b2 28 bd
       -0.011475921 0.10758193 0.108977064 -0.041185394
0003b0 e4 05 80 3d 18 4e 99 3d 4a bb f7 3d b0 ea 48 bc
       0.062511235 0.07485598 0.120962694 -0.012262985
0003c0 b8 1c 99 bd a0 da 18 3c 6e a6 f3 3d 04 1c d6 bd
       -0.07476181 0.009329468 0.11896978 -0.10454562
0003d0 ec f9 8e bd 7a b3 f0 bd 00 dc a3 3d f0 50 1b bc
       -0.069812626 -0.117529824 0.08000946 -0.009479746
0003e0 68 5d c4 bc b0 77 03 3c 08 ca 9e bd a6 56 b0 3d
       -0.02397032 0.008024141 -0.07753378 0.08610277
0003f0 58 6d d1 bd 40 13 3f bb 60 d6 34 3d 2e e9 8f bd
       -0.10225934 -0.002915576 0.044149756 -0.07026897

module.intent_predictor.encoder.bias_ih_l0 f4 [256]
000000 bf 47 73 bc 46 c9 b4 3d bc ff 2a bd f4 f0 9a bd
       -0.014848649 0.08827452 -0.041747794 -0.075654894
000010 e0 11 c2 bc 18 51 19 bd 0b 25 40 3e ea cc c0 3d
       -0.023690164 -0.037430853 0.18764131 0.09414084
000020 12 a0 d4 bd 4c 80 da 3d 30 a4 c9 bd 67 da 3c bd
       -0.103820935 0.10669002 -0.098457694 -0.046106722
000030 cb 02 5f bd 7d df 72 3d dd 4f 93 3e f8 a6 a1 3d
       -0.054446023 0.059295166 0.28771868 0.07893175
000040 90 5c d4 3d 8b e3 46 3b 4a 1d db bd 40 c7 c8 3b
       0.103692174 0.0030348029 -0.10698946 0.006127268
000050 18 9f 44 3d 10 2d 86 3d 60 d8 54 be 64 16 01 3d
       0.048003286 0.06551564 -0.20785666 0.031515494
000060 e8 c8 f3 bd 34 c2 fc bd 1a 11 96 3d ac 27 18 3d
       -0.11903554 -0.12341729 0.073274806 0.03714721
000070 40 70 8e 3c e8 85 0c 3d c0 21 f9 bd c0 8d 2a 3b
       0.01738751 0.03430739 -0.121646404 0.002602443
000080 41 7f 55 3d 7c a5 27 bd 00 11 b0 3b c0 14 66 bc
       0.052123312 -0.040929303 0.0053731203 -0.014043033
000090 ba 1c 81 3d 46 38 e6 bd 6d 04 d9 bc c6 20 97 3d
       0.06304307 -0.11241202 -0.026491368 0.07379298
0000a0 ad 5c f2 bd be ab a2 3b 80 17 77 bc f4 c3 4b 3d
       -0.11834083 0.004964321 -0.015081286 0.049747422
0000b0 c6 6a c6 bd 40 51 70 bc fe 24 da bd 78 8e 48 bd
       -0.09688334 -0.014667809 -0.10651587 -0.048963994
0000c0 68 cc 91 3c a0 e0 e4 3b 0f 83 83 bd 43 3d ee 3d
       0.017797664 0.006984785 -0.06421482 0.116327785
0000d0 50 a2 18 3d 9a 28 ef bd ce 69 fe bd 80 89 b1 3d
       0.03726417 -0.11677666 -0.124225244 0.08668804
0000e0 e0 f5 5b 3d e0 29 37 3d 4a d6 d7 3d 49 99 88 bd
       0.05370128 0.04471767 0.10538919 -0.06669862
0000f0 e4 22 99 bd 07 79 55 3d 09 12 a7 bc 85 29 a6 3a
       -0.07477358 0.052117374 -0.020394342 0.0012677169
000100 6b 61 02 be a4 40 1f bd 28 da 8e bc 18 90 25 3d
       -0.12732475 -0.038880005 -0.01743801 0.04042062
000110 3c ad d1 3d 9c c1 44 bd d4 8c 29 bd 40 50 81 3d
       0.1023812 -0.048036203 -0.04139407 0.063141346
000120 f8 86 c8 bc 30 66 b8 bd 78 23 fc 3d f7 c1 32 bd
       -0.02447842 -0.09003866 0.123114526 -0.04364201
000130 d6 d6 a9 3d f2 29 bd 3d c4 6e 66 3d b4 75 28 3d
       0.0829293 0.09236516 0.056257978 0.041127875
000140 44 d0 da 3d 26 a4 a3 3d 70 2b bd 3c f4 02 70 bd
       0.10684255 0.07990293 0.023092002 -0.058596566
000150 1e 81 e9 bd 50 16 07 bc 2c 7e 85 3d 10 7c 7f bd
       -0.1140158 -0.008245066 0.06518206 -0.062374175
000160 c8 50 bf bc da b5 fc 3d 88 76 4f 3d ec a0 d5 bd
       -0.02335395 0.12339373 0.05065015 -0.10431084
000170 52 d4 fc 3d e4 5d 3f 3d b0 29 4e 3c 5a 2d 90 3d
       0.123451844 0.0467204 0.012583181 0.070399
000180 f0 d4 c5 bd 8c fe 79 bd 0c d3 28 3d 78 53 ee 3d
       -0.09659755 -0.06103377 0.041216895 0.11637014
000190 9a 0e 95 bd 70 8f c1 3c 18 cb 34 bd 7c 06 a2 3d
       -0.07278176 0.023627967 -0.044138998 0.07911393
0001a0 1b f2 b3 3d f8 5d 06 bd c8 96 32 bd dc f2 e6 bd
       0.08786412 -0.03280446 -0.043600827 -0.112767905
0001b0 ea cc e7 bd c8 8d 63 bd 70 03 20 3d 44 f5 38 3d
       -0.11318381 -0.055555135 0.03906578 0.04515578
0001c0 e2 36 92 3d 7c fa a1 3d 98 7f bb 3d c4 85 d8 3d
       0.07139374 0.07909104 0.09155196 0.10572389
0001d0 10 0b 51 3c b8 28 cc 3c 98 36 85 bd 46 23 c9 bd
       0.012758985 0.02492176 -0.065045536 -0.09821181
0001e0 fa ad 9a 3d 0c 1c 66 bd 9e 56 27 bd 6a e6 87 3d
       0.07552715 -0.05617909 -0.04085409 0.06635745
0001f0 26 5e ec bd 17 aa bb 3d f3 5c e4 3c 3c 37 fc bd
       -0.11541395 0.091633014 0.027876353 -0.123152226
000200 ff fa cf bd 80 15 2a 3d a8 dc a7 3c 18 86 89 3d
       -0.101552956 0.04152441 0.02049096 0.067150295
000210 c0 bd 77 bb 78 2b a6 3c b7 f7 15 bc 8f 68 65 bb
       -0.0037802309 0.0202844 -0.009153298 -0.0035004949
000220 00 f4 7b ba 1c e6 90 bd 3e 5b fb bd fc 03 77 bd
       -0.0009611249 -0.0707514 -0.122732624 -0.060306534
000230 50 24 c1 3c b0 8a 40 3d 6d 61 96 bc 14 e0 47 3d
       0.023576885 0.047007263 -0.018357003 0.048797682
000240 e4 8f 23 bd a0 5e 9a bd 64 12 07 bd 80 da 82 bc
       -0.039932147 -0.075375795 -0.032976523 -0.01597333
000250 63 ec 98 bd 6a 05 d2 bd d2 f8 a3 3d 18 1f 84 3c
       -0.07466962 -0.10254939 0.08006443 0.016128108
000260 0e ed d5 3d 70 94 ca bc 7c dc 4a 3d 44 fc 8a bd
       0.10445605 -0.024728984 0.049526677 -0.06786397
000270 8e 5f ff 3d c9 03 95 3d 5c cf 62 bd 0c 3e 27 bd
       0.124693975 0.072761126 -0.055373535 -0.040830657
000280 0c f0 bf bd 0a af ed 3d 50 c3 93 3d 0c 8e 78 3d
       -0.09371957 0.11605652 0.07214987 0.06068234
000290 90 ea 9f bd db 28 cf bd 44 df 39 3d d0 dc 8e 3c
       -0.07808411 -0.101152144 0.04537894 0.017439276
0002a0 72 fa bb 3d 5c 41 02 3d 2c c9 13 bd 88 8e 6d bd
       0.09178628 0.031800613 -0.036080524 -0.057997257
0002b0 a9 44 02 3e 74 91 17 3d 51 1e 48 be 68 11 c4 3d
       0.12721504 0.03700395 -0.19542815 0.095736325
0002c0 76 8e 95 bd b7 1c 05 3d d6 47 04 3d 16 49 90 3d
       -0.07302563 0.032498088 0.03229507 0.0704519
0002d0 24 be 4f 3d 86 64 cb 3d 08 80 ec bc ec be d1 3d
       0.05071844 0.09931283 -0.028869644 0.102414936
0002e0 fa de e2 bd 22 70 80 3d e4 2c 4d bd 5c 74 ee bd
       -0.11077686 0.06271388 -0.05009164 -0.116432875
0002f0 7b 1a db bd 08 89 f5 3d 9c 89 0c bd 12 81 d9 bc
       -0.1069841 0.11989027 -0.034310922 -0.026550803
000300 98 d2 78 3d dc 76 54 3d ca 86 ac bd 94 b8 26 bd
       0.060747713 0.051871166 -0.084241465 -0.04070337
000310 a4 f3 02 bd a4 77 6c 3d 5e 9d f1 bd b0 8e 9f 3d
       -0.031970635 0.057731286 -0.117975935 0.07790887
000320 10 94 2a 3d 40 ae 6b bb f8 b1 92 3d 50 fe c3 bd
       0.04164511 -0.0035962015 0.07162851 -0.09569991
000330 3c 8e 8c 3d 20 2d bf 3d 7d 49 b5 bd 44 3b 74 bd
       0.068630666 0.09334779 -0.088519074 -0.059626833
000340 b0 83 bc bc c2 a4 ad 3c 68 5a 87 bd 00 9d 31 3d
       -0.023012012 0.021196727 -0.066090405 0.043362617
000350 f7 81 a7 bc 38 58 ec bd 45 f0 b9 bd f8 d7 f1 bd
       -0.020447714 -0.11540264 -0.09079031 -0.11808771
000360 f4 09 c1 3d 14 7a 1a 3d 18 b8 c7 3c 24 85 1a 3d
       0.094257265 0.03771408 0.024379775 0.03772463
000370 d0 df 96 bc 85 4b a5 be 60 ca 14 be fe 87 87 3d
       -0.018417269 -0.3228418 -0.14530325 0.06617735
000380 21 2a 70 3c 98 33 4c 3d 38 23 a6 3c 98 3f 3b 3d
       0.014658482 0.04985389 0.020280465 0.045714945
000390 78 ba 9c bc 8e 02 75 3d 8f 33 01 3e 9c 71 8b 3d
       -0.019131884 0.05981689 0.12617324 0.06808779
0003a0 00 81 33 bd b2 06 76 3d b8 da 75 bd 1c b1 dc 3d
       -0.043824196 0.06006498 -0.06002304 0.107759684
0003b0 ba 91 9f bd 9c 3c 3b bd c7 2b 90 3d aa 44 b0 3d
       -0.07791467 -0.0457121 0.070396 0.08606847
0003c0 1c 3c 9e bd bd 07 39 be 94 b1 4e bd bf 6f 3c bd
       -0.07726309 -0.18069358 -0.05046232 -0.046005007
0003d0 6e 83 da bd ba db ce 3d 60 d9 cc bb c2 f4 ee 3d
       -0.106695995 0.10100503 -0.006251499 0.116677776
0003e0 c8 4a 34 3d 00 59 b4 bc 82 e3 3a be d2 76 e5 3d
       0.04401663 -0.022015095 -0.1825085 0.11204304
0003f0 ef 5d dc 3d 1b fb a2 bd 48 90 86 3e fe c1 e6 3b
       0.10760104 -0.07958051 0.26281953 0.0070421686

module.intent_predictor.encoder.bias_hh_l0 f4 [256]
000000 3c ac b6 3c 50 8d 1d bc 48 b0 e6 bd e4 c1 a6 bd
       0.022298925 -0.009616211 -0.11264092 -0.081424505
000010 e0 4c ca bd 0e ff c4 bd c9 12 6f 3e b4 db ea 3d
       -0.09877944 -0.0961896 0.2334701 0.11467686
000020 70 24 a2 3d 6a d2 c7 3d 60 0e c4 3c 67 49 f8 bd
       0.07917106 0.0975693 0.023932636 -0.121233754
000030 9b 2b 6a bd cc 55 42 3e 58 d4 a4 3e b2 96 f0 bd
       -0.05717049 0.18978041 0.32193255 -0.11747493
000040 c0 a4 69 3b 26 05 45 bd 28 50 7a 3d e6 18 8e 3d
       0.0035651177 -0.048100613 0.0611116 0.06938343
000050 7e 50 e2 3d a0 9a 85 3c cb 6f b5 be 50 00 be bc
       0.11050509 0.016309083 -0.35436854 -0.023193508
000060 c8 fc 7d bd 1c e6 4d bd a0 24 db bd fe 97 d1 3d
       -0.06200865 -0.050268278 -0.10700345 0.10234068
000070 9c b6 0c 3d 70 4c db bc ac 71 71 bd 6e 56 86 bd
       0.034353837 -0.026769847 -0.058946297 -0.06559454
000080 0f 3e d2 3d 7c 15 d2 bd 40 b2 5a 3b 86 cf b4 3d
       0.10265743 -0.10258004 0.0033370405 0.088286445
000090 7c e6 1b 3d 66 88 99 3d 66 9c 81 bd ea 81 86 3d
       0.038061604 0.07496719 -0.06328659 0.06567748
0000a0 d3 8a 28 3c dd 1f d4 bd cc 4e aa 3d 0c a8 c9 3d
       0.0102870045 -0.1035764 0.083158106 0.098465055
0000b0 8b d3 21 3b f8 fe 8b 3c e0 b8 08 3d f4 4e 29 bd
       0.002469274 0.017089352 0.033379436 -0.04133506
0000c0 26 c8 8b bd d0 6c 08 bd dd 76 e5 3d f1 53 de bd
       -0.06825285 -0.033306897 0.11204312 -0.10855854
0000d0 02 31 97 bd 60 1e c3 bc 98 2e 63 3d 80 3a 7e 3c
       -0.073823944 -0.023818195 0.055464357 0.015516877
0000e0 82 92 a3 3d ec 6e 0d 3d 80 ed 80 3a 16 d7 91 bd
       0.079869285 0.03452961 0.0009836406 -0.071211025
0000f0 58 14 b4 bd 4a 24 8a 3d d1 90 a0 bc 79 b0 58 3d
       -0.08792943 0.06745203 -0.019600304 0.052902672
000100 fd 28 2c be e0 fb d5 3d 08 bd 0c 3d 38 71 af 3c
       -0.16812511 0.10448432 0.03435996 0.021416292
000110 ec f8 52 3d 04 e1 c5 bd 42 e9 e2 bb 8c c1 5c 3d
       0.05150692 -0.09662059 -0.006924779 0.05389552
000120 f0 6f 65 bc ac 83 6d 3d 88 5f d8 3c 9a 0b 71 3c
       -0.014003739 0.0579869 0.02641274 0.014712239
000130 00 83 6d bc 14 0e 80 bd ec 82 79 3d 90 77 c9 3c
       -0.014496565 -0.06252685 0.060915872 0.024593145
000140 60 e8 01 bc a1 f3 1e 3d f0 85 b8 bc 9c ee 08 bd
       -0.007928938 0.03880656 -0.022524804 -0.03343068
000150 9c c1 ac 3d 58 c1 8c bd 1a d1 da 3d 40 0b 95 bb
       0.084353656 -0.06872815 0.10684414 -0.0045484602
000160 dc 7c d4 bd f6 70 88 bd 58 e5 23 bd 9c 63 0e bd
       -0.103753775 -0.066621706 -0.04001364 -0.034762964
000170 b8 d6 fc 3d f2 d6 e0 bd 44 6f c7 3d a0 0a c9 3d
       0.12345642 -0.109784976 0.09738019 0.0981648
000180 78 90 68 3d a6 c1 fe 3d 0e c9 c5 bd b2 f6 f5 3d
       0.0567784 0.12439279 -0.09657489 0.12009944
000190 7c a2 95 3d b0 de c9 bd 70 d4 df 3c da 6d ac 3d
       0.07306382 -0.098569274 0.027322978 0.0841939
0001a0 ab 1f 01 3e e8 f3 20 3d f4 a1 e0 3d f6 a6 bc bd
       0.12609737 0.039295107 0.1096839 -0.09211533
0001b0 bc 8f 7e 3d 20 70 ee bd b8 83 b6 bd 60 af 58 bd
       0.062148795 -0.1164248 -0.08911842 -0.052901626
0001c0 b8 9b 4c bd 56 5a dd bd 22 f3 a1 bd 20 d4 a5 bc
       -0.049953192 -0.10808246 -0.07907702 -0.02024275
0001d0 40 98 34 3b 32 78 9f 3d 62 26 a2 3d e0 79 c9 3d
       0.0027556568 0.07786597 0.07917477 0.09837699
0001e0 68 9b 11 bd d6 de b4 3d 20 aa 46 bd 48 b1 84 bc
       -0.035548598 0.08831565 -0.048502088 -0.016197816
0001f0 84 7d 54 3d 59 e3 b0 bd 19 1c ae 3d 54 1e 93 bd
       0.051877514 -0.08637113 0.08501453 -0.07183519
000200 b0 c4 dd bd 80 c5 c1 bc ce 3d b2 3d 2e 93 b0 bd
       -0.10828531 -0.023653746 0.087031946 -0.08621822
000210 48 89 ce bc 90 56 00 bd 95 5d 8a bc ec 4d 43 3d
       -0.025211945 -0.031332552 -0.016890327 0.047681734
000220 54 c4 17 3d 8c 30 b0 bd 46 52 d9 3d 14 5a db 3d
       0.037052467 -0.086030096 0.106113955 0.107105404
000230 b0 b1 44 3d c0 5b 66 3d 9c 39 8d 3d 1e 43 b9 bd
       0.04802102 0.056239843 0.06895754 -0.09046005
000240 9a 15 9f 3d 70 fc 17 3c 10 8a 65 3d ec 79 4f 3d
       0.07767792 0.009276494 0.05603987 0.050653383
000250 9b b6 b0 bd 5a c2 a3 3d 8f 16 97 bd 90 b7 48 3c
       -0.08628579 0.07996054 -0.073773496 0.012250796
000260 98 d7 20 3d e8 2e d7 bc 0a aa 9a 3d 22 f5 8e 3d
       0.039268106 -0.026267484 0.075519636 0.06980349
000270 58 a0 25 bd dd 6e af bd a0 88 ca bd f8 3b b2 3d
       -0.04043612 -0.08566067 -0.098893404 0.087028444
000280 08 78 69 bd 30 ef 05 bc 40 0f 1d 3c 4c c7 70 bd
       -0.056999236 -0.0081747025 0.009586155 -0.058783814
000290 88 87 fe bd c5 67 12 bd 5e 4a ad 3d 08 43 5b bd
       -0.12428194 -0.035743494 0.0846145 -0.053530723
0002a0 f0 c3 d2 3d fc 9e 9e bd 84 3e 34 3d 96 3d ff bd
       0.10291278 -0.077451676 0.044004932 -0.124629185
0002b0 5c a8 16 bc c0 e6 b7 bd d8 f7 4b be 44 21 ae 3d
       -0.009195413 -0.08979559 -0.19918764 0.08502439
0002c0 50 2e a5 bd 0f 93 d0 bc 77 7c 96 3c 66 5b d5 3d
       -0.08065474 -0.025460748 0.018369896 0.104178235
0002d0 80 7a 83 3a 28 1e ad bd 20 25 d1 3b 30 1e 1e bd
       0.0010031015 -0.084530175 0.0063825995 -0.038603008
0002e0 82 cc e5 3d 9a 3c f8 3d 0e 1a c7 3d 2c 02 fe bd
       0.112206474 0.12120934 0.097217664 -0.12402758
0002f0 b6 88 d7 3d a0 d3 4c bd 00 8a a8 39 e4 d0 ff 3d
       0.105241224 -0.05000651 0.00032146275 0.124910146
000300 fa 69 d8 bd 68 ba 89 3c 2c 1e 0a 3d 00 6e 5f bd
       -0.105670884 0.016812518 0.03372018 -0.054548264
000310 be 1f e4 3d c0 94 3e 3c aa 93 84 bd 80 08 9b 3d
       0.11138867 0.011632144 -0.06473477 0.075699806
000320 c0 4d 8c bd 20 e4 ae bc 78 45 bb bd 48 e5 18 bd
       -0.06850767 -0.021349013 -0.091441095 -0.037328035
000330 80 b2 87 3a 40 6b 4a bd 37 6e e5 bd 10 35 1d 3d
       0.001035288 -0.049418688 -0.112026624 0.038380682
000340 d8 0c 29 3d a9 72 0c bc 40 c4 ea bb 4e a2 e6 bd
       0.041272014 -0.008572259 -0.007164508 -0.11261426
000350 17 3b 55 3c 58 a0 3b 3d 0d 29 af bd 20 e2 7e 3d
       0.013014576 0.045807213 -0.08552752 0.06222737
000360 00 43 58 3c 76 3f e9 3d b0 25 e3 3d d0 3d 81 3d
       0.013199568 0.11389057 0.11091173 0.06310618
000370 f0 58 3c 3c d5 66 3a be b1 71 a0 bd 82 c2 b5 bd
       0.011495814 -0.1820329 -0.07834185 -0.0887499
000380 61 28 08 bd ea 31 dc bd 98 04 00 3d 00 0b 91 3d
       -0.033241633 -0.10751708 0.03125438 0.07082176
000390 a8 9f bb 3d 45 8e 90 3d 92 ce 98 bd fa d8 80 3d
       0.091613114 0.07058386 -0.07461275 0.06291385
0003a0 c2 e1 db bd aa bf 98 3d 40 e4 14 bd 7c 2b c4 3d
       -0.10736419 0.07458432 -0.03635049 0.095786065
0003b0 98 0c a4 bc 06 71 9c 3d 71 6d 27 3e fa cb fd 3d
       -0.020025536 0.07638745 0.16350342 0.12392421
0003c0 ed 7b 24 bd 3e 79 0c be dc a7 7a 3d f1 d1 c7 bb
       -0.040157247 -0.13718125 0.06119524 -0.006098025
0003d0 c0 d7 27 bd d0 f1 5b 3d c0 68 c8 3c 32 cf 83 bd
       -0.04097724 0.053697407 0.024464011 -0.06436004
0003e0 28 61 40 bd 76 7c fa 3d 38 a3 89 be b8 6b 95 3c
       -0.046967655 0.1223077 -0.2688234 0.01823984
0003f0 9f c3 b1 bd ea a0 8b be 31 11 1b 3e 54 ad 6f 3d
       -0.0867989 -0.27271205 0.15143277 0.058514908

module.intent_predictor.fc.0.weight f4 [16, 64]
000000 25 f9 0e 3d 60 0c f1 3c 54 ce 2e bd b4 f3 91 3d
       0.03490557 0.029424846 -0.04267724 0.07126561
000010 28 73 9b bc 2c 6e 50 3d af d9 e6 bd 09 4a a4 bd
       -0.01897581 0.050886318 -0.112719886 -0.080219336
000020 24 37 b6 3c 38 72 2b 3d a0 f1 51 3c 7c 66 aa 3c
       0.02224309 0.041856974 0.012813956 0.020800821
000030 18 93 66 3d 90 90 8e 3d 26 fc d3 3d 88 c9 72 bd
       0.056292623 0.06961167 0.10350828 -0.059274226
000040 00 c7 57 bb aa 42 21 3d 00 2c f0 bc d0 b4 ad bd
       -0.003292501 0.039370216 -0.029317856 -0.08481753
000050 a0 10 f8 ba da fb 94 bd b1 e1 1b bd 58 b8 f7 bd
       -0.0018925853 -0.072745994 -0.038057033 -0.12095708
000060 1a 08 f3 bd 04 89 ce bd 98 81 80 3c 26 69 f6 3d
       -0.118667796 -0.100847274 0.015686795 0.12031774
000070 b2 08 b2 3d d3 4e 6b be d8 45 97 bc fc 5c 08 bd
       0.08693065 -0.22979288 -0.018465921 -0.0332918
000080 fb 7a be 3c a4 68 da bd e8 7e b8 bd c0 6a 80 3c
       0.023252001 -0.1066449 -0.090085804 0.015675902
000090 b0 30 d5 3c f5 42 a3 3d a0 11 9a bc c9 2d d3 bd
       0.026024193 0.079717554 -0.018807232 -0.10311467
0000a0 97 ad 21 be 56 2e 59 bd 08 75 2a 3d 54 27 cc bd
       -0.15788876 -0.053022705 0.041615516 -0.09968439
0000b0 74 c8 fa bd 30 0d 5e bd 7a 11 66 3e 10 99 18 bc
       -0.12245265 -0.054211795 0.22467604 -0.009313837
0000c0 a4 b1 a1 3d 26 13 68 be c8 68 d6 bd c5 a8 6d bc
       0.078952104 -0.22663555 -0.10469204 -0.01450557
0000d0 10 99 fe bd 80 0f 15 bd 00 85 a9 bd 00 c5 06 bc
       -0.12431538 -0.036391735 -0.08277321 -0.008225679
0000e0 80 ef b1 3b 80 51 27 3d 77 94 11 3d 17 83 7c 3d
       0.005430162 0.04084921 0.035541978 0.061648455
0000f0 41 44 13 3e 0e 10 18 3e c4 2f 9e 3d 5c a7 e3 bc
       0.14381506 0.14849874 0.07723954 -0.027789764
000100 0a 2f 7c bd a0 2a da bd 04 8a e6 3d d0 01 7c bc
       -0.061568297 -0.10652661 0.11256793 -0.0153812915
000110 70 42 99 bd cc ee 9a bd c4 44 7c 3e 31 33 dc 3c
       -0.07483375 -0.07565078 0.24635607 0.026879879
000120 a4 81 a3 bd d8 8a 8f bd d8 5b 0e 3d 3f 26 0f 3c
       -0.07983711 -0.07008904 0.034755558 0.008737146
000130 b1 91 4f 3d 06 f6 6d be 66 e5 3a be 08 86 dd bd
       0.05067605 -0.23238382 -0.18251571 -0.1081658
000140 b8 80 ae bc c2 7a d6 bd 34 a6 98 3d 50 8e d7 bc
       -0.021301612 -0.10472633 0.07453576 -0.026312977
000150 4f 63 b3 3c aa 3f 91 bd d9 bc 4f 3e 5c 70 eb bd
       0.02189794 -0.07092221 0.20286883 -0.1149604
000160 00 59 16 bd e0 9f e6 bc a8 aa 89 3c b8 ab cf 3c
       -0.03670597 -0.028152406 0.016805008 0.025350437
000170 28 30 fd bc 1f 76 6e 3e 74 72 21 3e 72 60 8c bd
       -0.030906752 0.23287247 0.15766317 -0.06854333
000180 95 bd 38 3d 74 54 95 bd d4 0b e7 bd 08 fb c1 3d
       0.045102675 -0.07291499 -0.11281553 0.094717085
000190 c4 72 f5 bd b0 48 e4 bd 62 0c f5 bd 79 33 92 3d
       -0.119847804 -0.111466765 -0.119652525 0.07138724
0001a0 f5 09 2e 3e b4 86 13 3e f2 16 cf 3d 4a 25 b9 3d
       0.16995986 0.14406854 0.10111798 0.090403154
0001b0 58 e5 04 3e f0 9d b6 bc a2 a2 70 be 12 e0 e6 3d
       0.12978113 -0.022292107 -0.2349954 0.11273207
0001c0 bd 81 f7 bd d3 c8 81 3e 84 3d a4 bd 3c ff 06 3e
       -0.120852925 0.2534853 -0.08019546 0.13183302
0001d0 44 d9 96 bd 40 d7 26 bd 20 ce e9 bb 30 88 d0 bc
       -0.07365659 -0.040732622 -0.0071351677 -0.025455564
0001e0 4c f1 5e 3d c0 de f9 bd b2 76 ad 3e f3 d2 ca bd
       0.054429337 -0.12200689 0.3387962 -0.099035166
0001f0 80 bb 56 be 1e 5b 26 be 0f e0 83 bd 7a c8 c3 3d
       -0.20969963 -0.16245696 -0.0643922 0.09559722
000200 88 22 47 3e 44 da dd 3d 00 da 87 bb cc 58 0b bd
       0.19446766 0.108326465 -0.0041458607 -0.03402023
000210 2c 2e cf bd 50 3d 5d bd 9b 85 8e bd e5 5a 34 be
       -0.101162285 -0.05401355 -0.06959077 -0.17612799
000220 c9 fe dc bd 10 61 8d bc b6 5c fb 3d c1 9a 9c bd
       -0.10790784 -0.017258197 0.122735426 -0.076467045
000230 72 f6 39 3b c8 40 5b 3e b8 25 9b bc c2 26 f3 3d
       0.0028375653 0.21411431 -0.018938884 0.11872627
000240 c4 62 3e 3d c3 1a 07 3c 38 16 69 bd 20 24 21 bc
       0.04648091 0.008246127 -0.056905955 -0.009835273
000250 5b 46 aa 3d 46 4d b6 3d 3e 82 6a bc 8c 99 b9 bd
       0.083142005 0.089014575 -0.014313279 -0.0906249
000260 92 59 a5 bd a0 4d 2e 3d 3c 8a 4a 3d fc a3 a8 bd
       -0.08073725 0.042554498 0.049448237 -0.082344025
000270 40 01 80 bc 70 7e d7 3d cc 3f 5d be 46 7d c0 bd
       -0.015625596 0.10522163 -0.21606368 -0.09398894
000280 98 51 97 bd 00 ed 4f bc 9c 10 a2 bd d8 c7 af 3d
       -0.0738861 -0.012690783 -0.07913324 0.08583039
000290 b8 d0 d9 3c 70 21 fd 3c 7a a6 9c 3e 69 26 c6 bd
       0.026588783 0.030899733 0.30595762 -0.09675295
0002a0 d4 5b cb be 9c fe 8f bd ba a1 95 bd 3c 25 01 bd
       -0.39718497 -0.07030985 -0.073062375 -0.03152965
0002b0 ff 8e c1 3e 40 02 13 bd 2a 7d 40 be c4 de 2b bd
       0.3780441 -0.035890818 -0.18797746 -0.041960493
0002c0 2a 53 d8 3d 1d 3a 41 bb cc 1e 11 3d 53 73 b8 bd
       0.10562737 -0.00294841 0.03542976 -0.09006371
0002d0 58 da a0 3d b8 9f a1 bd 5a cb af 3d 4c c0 33 3d
       0.07854146 -0.07891792 0.08583708 0.04388456
0002e0 64 2b e1 bd e0 f7 d5 bd 2b 85 9f 3c 50 88 0b 3d
       -0.10994604 -0.10447669 0.01947268 0.034065545
0002f0 b1 89 8f 3e 78 1b bd bc 79 13 a9 bd c4 71 49 bc
       0.28034738 -0.023084387 -0.08255667 -0.01229519
000300 91 06 19 be e8 d2 d9 3d 56 e6 a5 3d 40 1b 03 3b
       -0.14943911 0.1063593 0.08100574 0.0020005256
000310 b8 20 0d bd 5a 2e eb bd b4 9b a7 3e 6b f6 66 3c
       -0.03445503 -0.1148345 0.3273598 0.014096837
000320 d9 ac ba 3d c8 2f 15 3d c0 5d 73 3d 64 3b 44 3d
       0.09114999 0.03642252 0.05941558 0.0479082
000330 89 10 21 bd 80 55 b8 be 22 28 2e be f4 d2 5b 3d
       -0.03932241 -0.3600273 -0.17007497 0.053667977
000340 88 20 d0 bc f7 a6 a9 bd 36 1f 8a bd 7e 9d 89 3d
       -0.025406137 -0.08283799 -0.06744234 0.067194924
000350 92 a1 a4 bd 60 38 6f bc a2 25 4b 3e 26 a4 c2 3d
       -0.080386296 -0.014600843 0.19838575 0.09503965
000360 4c 0f b2 bd b0 d7 cb bc 66 22 d8 bd 30 a4 45 bc
       -0.08694324 -0.024883121 -0.10553436 -0.012063071
000370 b2 49 d3 bd 22 bd 69 3e 55 df fe 3d a4 79 38 3d
       -0.10316791 0.22826055 0.12444941 0.04503788
000380 58 49 ce bd 6c e2 75 3d f0 4f c7 bc e8 9c d4 3d
       -0.10072583 0.060030386 -0.02433011 0.1038149
000390 e8 10 24 bd f0 75 10 be a5 10 11 be 88 01 57 3d
       -0.040055186 -0.1410749 -0.14166506 0.052491695
0003a0 bb 63 0a 3e c3 6b 30 3e c2 5e 86 3d 00 04 08 bb
       0.13514607 0.17228608 0.06561042 -0.0020754337
0003b0 db 8e 12 3e 44 65 aa bd fc 08 40 be 58 96 12 3d
       0.14312308 -0.08320096 -0.18753427 0.03578791
0003c0 5c 21 92 bc 0e 64 cd 3e ff 59 01 3c 8c 56 9d 3c
       -0.017838173 0.40115398 0.007894992 0.019206308
0003d0 e8 61 e9 bd cc f6 f9 3a 10 ad 1c bd 94 c3 c7 3d
       -0.11395627 0.0019070744 -0.038250983 0.097541004
0003e0 f6 63 99 3d d2 63 b4 3d 92 a1 a9 3e 5e 76 64 bd
       0.07489769 0.08808102 0.3313108 -0.055776946
0003f0 e5 01 67 be 29 58 2c be 53 c3 43 be ca b4 5a 3b
       -0.22559316 -0.16830505 -0.19117479 0.0033371919

module.intent_predictor.fc.0.bias f4 [16]
000000 43 c4 f6 3d 1c 17 ea bc 81 0a 1b bc 9c 45 c6 bb
       0.12049153 -0.028575473 -0.009462954 -0.0060507786
000010 16 c9 d9 bd 64 c1 ea 3c be ae 0e bd db 50 a5 bd
       -0.10634057 0.028656669 -0.034834616 -0.080720626
000020 f5 75 6b bb 3a a4 ab bd 23 1e 00 be 17 58 1c 3d
       -0.0035928462 -0.08380933 -0.12511496 0.038169947
000030 95 a6 35 bd f3 fb 2b 3e 54 b9 0c bd cc 68 e4 3d
       -0.044348318 0.1679533 -0.03435643 0.11152801

module.intent_predictor.fc.3.weight f4 [1, 16]
000000 d3 67 a3 3e 8c 4e d1 be 75 68 0b 3f 0d d8 cd be
       0.3191515 -0.4088024 0.54456264 -0.40203896
000010 06 11 d0 be cd 70 95 3e 37 e9 bb be dd 50 8f 3e
       -0.40637988 0.29187623 -0.36701366 0.2799138
000020 7f 75 92 bd 0d 22 de be f2 c8 cd be 10 88 a0 3e
       -0.07151317 -0.43385354 -0.40192372 0.31353807
000030 1e 01 01 bf c0 b0 10 3f 36 68 32 3f 59 c4 c7 3e
       -0.5039233 0.565197 0.69690263 0.3901699
